models/best_dqn_agent.pt (torch, 86724 bytes, 24 tensors)

network.0.weight f4 [64, 5]
0	0x409293b9	4.5805326
1	0xbf39f715	-0.7264264
2	0x3eeff5c1	0.46867183
3	0x3dbc53fe	0.09195708
4	0xbea58967	-0.32331392
5	0xbf991c21	-1.1961709
6	0x3f5c05f1	0.85946566
7	0xbed9aea6	-0.4251606
8	0x3e432c82	0.19059947
9	0x3f2bf74a	0.6717421
10	0xc0e8fa59	-7.28056
11	0x3d9465a1	0.07245947
12	0xbd034af9	-0.03205392
13	0xbde1ca46	-0.11024909
14	0x3ec56b3b	0.38558373
15	0xbebd136e	-0.36928886
16	0xbed61238	-0.41810775
17	0xbe8669a8	-0.26252484
18	0xbb169d00	-0.0022981763
19	0xbdb84bf0	-0.08998859
20	0x3ec438b0	0.383245
21	0x3e4ad85c	0.19809097
22	0xbe9667ec	-0.2937616
23	0xbeb02c58	-0.34408832
24	0x3e27e4ec	0.1639592
25	0xbd9dfec8	-0.07714611
26	0x3e17f84c	0.14840811
27	0xbe77fee7	-0.24218331
28	0x3d5a0210	0.053224623
29	0xbddb4688	-0.10706812
30	0xc0fd9a34	-7.9250736
31	0xbe79f82b	-0.24411075
32	0xbea408df	-0.32038018
33	0x3ca32385	0.019914398
34	0x3ed7d7dd	0.42156878
35	0xbf9313a1	-1.1490365
36	0x3f83139d	1.024036
37	0xbeefda8e	-0.46846431
38	0xbecb5b9c	-0.3971833
39	0xbe4695f3	-0.19393139
40	0xbf4c76bd	-0.7986868
41	0x3f815a58	1.0105696
42	0xbe20c1a1	-0.15698864
43	0xbefded82	-0.49595267
44	0x3ef0aeae	0.4700827
45	0xc0429c04	-3.0407724
46	0x3eac29c6	0.3362562
47	0x3ea00e92	0.31261116
48	0x3e3ad0f0	0.18243766
49	0xbd677177	-0.056504693
50	0x3e55b9c4	0.20871645
51	0xbebc9f49	-0.36840275
52	0xbe63607b	-0.22204773
53	0x3d46cb00	0.04853344
54	0x3e84ebb6	0.25961083
55	0x409d2749	4.9110456
56	0xbf113328	-0.56718683
57	0x3efdc9cc	0.4956802
58	0x3d7f9417	0.06239709
59	0xbeceed7c	-0.4041556
60	0xc05bc509	-3.433901
61	0x3f36c10f	0.71388334
62	0xbe9aaaa6	-0.3020832
63	0xbddd852f	-0.108164184
64	0x3ee78429	0.45218018
65	0xbdfec10c	-0.124391645
66	0x3e9f0014	0.31054747
67	0xbc7bf7e0	-0.015378922
68	0x3c9c6390	0.019090444
69	0xbe8715b5	-0.2638375
70	0xbe10f3d0	-0.14155507
71	0x3eb72aa6	0.35774726
72	0xbe9a9189	-0.3018916
73	0xbe22a6d4	-0.15883952
74	0xbece9b1d	-0.40352717
75	0xbfe12d6c	-1.7591987
76	0x3f1b4148	0.60646486
77	0x3e19bdfa	0.15013877
78	0xbcf148dd	-0.02945369
79	0x3e10c6ca	0.14138332
80	0x3e608e98	0.21929395
81	0x3ebd1648	0.36931062
82	0xbea4a7ee	-0.3215937
83	0x3eb7a0aa	0.35864764
84	0xbcb897f0	-0.022533387
85	0xc05ad1ee	-3.419063
86	0xbe9ba2d7	-0.30397674
87	0x3dd21af8	0.1025905
88	0x3eba7e3c	0.36424434
89	0x3f0f7b31	0.5604735
90	0xbee0839c	-0.4385041
91	0x3e5d993c	0.21640486
92	0xbe0edade	-0.13950679
93	0xbecbbe6a	-0.39793712
94	0xbe26c1ba	-0.16284838
95	0xbe5b0906	-0.21390161
96	0xbb192900	-0.0023370385
97	0x3e047540	0.12935352
98	0xbdef5c6c	-0.1168755
99	0x3d932218	0.07184237
100	0xbf6e8fbe	-0.93188083
101	0x3f8345cb	1.0255674
102	0x3e87b44b	0.2650474
103	0xbd40f468	-0.047108084
104	0x3e38e388	0.18055546
105	0xbe457836	-0.19284138
106	0xbecfc48a	-0.40579635
107	0xbed25f30	-0.41088247
108	0xbe109072	-0.14117602
109	0x3ec319ba	0.38105565
110	0xbfc3ed1c	-1.5306735
111	0x3f662d55	0.8991292
112	0x3e4b15ec	0.19832581
113	0x3d6b79ea	0.057489313
114	0x3da08a4b	0.07838877
115	0x3e0cd7fc	0.13754267
116	0xbe9cd562	-0.30631548
117	0xbeb0a26c	-0.34498918
118	0xbec76925	-0.38947406
119	0xbe8dabb4	-0.27670062
120	0x40a7ecd5	5.24766
121	0xbf10216b	-0.5630099
122	0x3db84c1e	0.08998893
123	0x3e209dc0	0.15685177
124	0x3e02e103	0.12781148
125	0xbf38de59	-0.72214276
126	0x3f7b3aef	0.981368
127	0xbec06feb	-0.37585387
128	0xbda2d15c	-0.079500884
129	0x3dc2edf7	0.095180444
130	0x3ed33742	0.41253096
131	0xbda6d984	-0.081469566
132	0xbe3445fc	-0.17604822
133	0x3e4d6a54	0.20060092
134	0x3dfc0228	0.12305099
135	0xc0611e46	-3.5174727
136	0x3edfd12f	0.43714282
137	0x3e1d6c2b	0.15373294
138	0x3e832538	0.25614333
139	0xbe40450a	-0.18776336
140	0xbf87e84f	-1.061777
141	0x3f78ffdc	0.9726541
142	0x3e6df8c6	0.23239431
143	0x3e41a3a4	0.1891008
144	0x3ddcb833	0.10777321
145	0xc009e6ca	-2.1547112
146	0x3f065a39	0.5248142
147	0x3ebdec80	0.37094498
148	0x3e2f82d8	0.17139757
149	0x3f1f6ba4	0.6227362
150	0x3ed4e526	0.41581076
151	0xbdbb8fb4	-0.091582686
152	0xbe908f6e	-0.28234428
153	0xbec821c1	-0.39088252
154	0xbe57e04f	-0.2108166
155	0xc106bd67	-8.421241
156	0xbec5be6c	-0.38621843
157	0x3c9006f6	0.017581444
158	0xbe9aef79	-0.30260828
159	0x3cd20ce1	0.025640907
160	0xbc185220	-0.009296924
161	0xbea91254	-0.33021796
162	0x3d8d8cb0	0.069116
163	0x3dabec08	0.08394629
164	0xbec01788	-0.37517953
165	0xc02864e3	-2.6311576
166	0x3eae6d7e	0.3406791
167	0xbdcfbe2a	-0.10143693
168	0xbe6156df	-0.22005795
169	0x3e65677c	0.22402757
170	0xc0bc6c49	-5.8882184
171	0xbd2d2770	-0.04227394
172	0xbe9050e1	-0.28186706
173	0xbeeafb40	-0.45894814
174	0x3e50bc0b	0.20384233
175	0xc047d70a	-3.1225
176	0x3f624911	0.8839274
177	0xba4017e1	-0.0007327777
178	0xbf08efea	-0.5349108
179	0x3e769994	0.24082023
180	0xbfdc6f40	-1.7221451
181	0x3f0fa5d5	0.56112415
182	0xbedd7985	-0.43256775
183	0xbe0daa79	-0.13834561
184	0x3f262a9e	0.6490878
185	0xc06d44d0	-3.707325
186	0x3f22d7e5	0.6361068
187	0x3dc3faac	0.09569296
188	0xbeff1a50	-0.49824762
189	0x3e405f64	0.18786389
190	0xc093d485	-4.6196923
191	0xbd638e27	-0.05555549
192	0xbdb62fea	-0.08895858
193	0x3ea4c8b4	0.32184374
194	0x3ea92c92	0.33041817
195	0x409bc8d5	4.8682656
196	0xbf1650ce	-0.5871705
197	0x3ef5e588	0.4802668
198	0x3e98ceec	0.2984537
199	0xbed78097	-0.42090294
200	0xc09fcf9d	-4.9940934
201	0xbe5d1950	-0.21591687
202	0x3e361b29	0.17783798
203	0xbf03ca83	-0.51480883
204	0xbe50f372	-0.20405367
205	0xbe3b0448	-0.18263352
206	0x3e9b8fde	0.303832
207	0x3e0d5dac	0.13805264
208	0xbdb70fd8	-0.08938569
209	0xbe778049	-0.2417003
210	0xbe0d41ae	-0.13794586
211	0xbeb9ed70	-0.36313963
212	0xbe2b0242	-0.1670008
213	0xbe30e740	-0.17275715
214	0x3ec3fd80	0.38279343
215	0xc0d1bfa4	-6.5546436
216	0xbdad393d	-0.08458183
217	0x3d98a464	0.0745323
218	0xbd57fea9	-0.052733097
219	0xbd4127bb	-0.04715703
220	0xc0131915	-2.298406
221	0x3f3e3f73	0.74315566
222	0xbe998086	-0.29980868
223	0xbcdbf844	-0.02685178
224	0x3f107dd8	0.5644202
225	0xbe1ae7ac	-0.15127438
226	0x3e6e14d4	0.23250133
227	0xbe1a3368	-0.15058672
228	0xbecc31b0	-0.3988166
229	0xbd5820d0	-0.052765667
230	0xbe24add8	-0.16081941
231	0xbd71a5e0	-0.05899608
232	0xbe9f59a4	-0.31123078
233	0x3ea646ba	0.32475835
234	0x3d329d50	0.043607056
235	0xbee3f4a6	-0.4452259
236	0xbeaafcd9	-0.33396032
237	0xbe58a677	-0.21157251
238	0x3e673360	0.22578192
239	0xbdd1590c	-0.102220625
240	0xc092b622	-4.584733
241	0x3da0f0ae	0.07858406
242	0x3e52aa41	0.20572759
243	0xbec25b8d	-0.37960473
244	0xbdfb8686	-0.12281518
245	0xbe875d7c	-0.2643851
246	0x3da39bd0	0.07988703
247	0xbdc9b058	-0.09848088
248	0x3e1baf28	0.15203536
249	0xbdf98cdc	-0.1218507
250	0xbf0c4fe1	-0.54809386
251	0x3f4c97a6	0.799189
252	0x3e57c706	0.21072015
253	0x3e3ee39d	0.18641515
254	0x3edfe770	0.4373126
255	0xbf970208	-1.1797495

network.0.bias f4 [64]
0	0x3f3eaf9c	0.7448671
1	0x3ec7bc4f	0.39010856
2	0xbe604597	-0.21901546
3	0xbca859c0	-0.020550609
4	0xbed4074e	-0.41411823
5	0xbeb931c8	-0.36170793
6	0x3e61e015	0.22058137
7	0x3e8a08b2	0.2695976
8	0x3e3f85e8	0.18703425
9	0x3e939605	0.28825393
10	0xbdf34830	-0.11879003
11	0x3f3d5535	0.7395814
12	0x3e897467	0.2684662
13	0xbe60b1d0	-0.2194283
14	0xbe73d372	-0.23811129
15	0x3e974788	0.29546762
16	0xbe116a9a	-0.14200822
17	0x3eeccd70	0.46250486
18	0xbd68a288	-0.056795627
19	0xbe5bce5b	-0.21465437
20	0x3e27ebf6	0.16398606
21	0xbeb3a9cb	-0.3509048
22	0xbe95c2ad	-0.29250088
23	0xbe5b04ce	-0.21388552
24	0x3f06dcda	0.5268074
25	0x3e46c909	0.19412626
26	0xbedc6332	-0.4304443
27	0x3ecd0520	0.40042973
28	0x3ea13557	0.31486008
29	0x3d8ae1ee	0.06781374
30	0xbc9072e0	-0.017632902
31	0x3e95753b	0.29191002
32	0x3e6eca50	0.23319364
33	0x3e04a04d	0.12951775
34	0x3e5f0ccf	0.2178223
35	0xbe78914f	-0.24274181
36	0x3e88f034	0.2674576
37	0xbdcaff40	-0.09911966
38	0x3eab5d16	0.33469456
39	0x3f3ca5d7	0.7369055
40	0x3e9ebe57	0.31004593
41	0xbed496e9	-0.41521385
42	0xbe969720	-0.29412174
43	0x3ca243be	0.019807693
44	0xbc02ab29	-0.007975378
45	0xbd8f3bc4	-0.06993821
46	0xbecf5265	-0.4049255
47	0x3e826df4	0.25474513
48	0x3ea1e9e5	0.3162376
49	0x3d4ba970	0.049722135
50	0x3ec9e291	0.3943067
51	0x3cf068bb	0.029346814
52	0xbe1ba566	-0.15199813
53	0xbe48eeac	-0.19622296
54	0x3ebd42c0	0.3696499
55	0xbe8aafa5	-0.2708713
56	0xbeb59bec	-0.3547052
57	0xbe651154	-0.22369891
58	0xbeba59bc	-0.36396587
59	0xbda128ff	-0.078691475
60	0x3e4885f0	0.19582343
61	0x3e8cf898	0.27533412
62	0xbef29c91	-0.47385076
63	0x3e08ba49	0.13352312

network.2.weight f4 [64, 64]
0	0xbc754d70	-0.014972076
1	0xbd8bfaf8	-0.06834978
2	0xbd22ca9a	-0.039743997
3	0x3c956dc0	0.01824081
4	0xbde40f6a	-0.111357525
5	0x3dbf0e3c	0.09328887
6	0xbddc84ea	-0.10767539
7	0xbd179764	-0.03700961
8	0xbd795acd	-0.06087761
9	0x3d49bf7b	0.049254876
10	0xbda691d2	-0.08133282
11	0xbdca0656	-0.0986449
12	0x3d7bd5d8	0.061483234
13	0x3dd657f0	0.104659915
14	0x3de8092e	0.11329876
15	0x3bf0c0d1	0.0073472043
16	0xbb6d4000	-0.0036201477
17	0x3d905516	0.07047479
18	0x3d235658	0.039877266
19	0xbd7f7bb0	-0.062373817
20	0xbbac580a	-0.0052595185
21	0xbd82ee20	-0.06393075
22	0xbd9c1e81	-0.07623006
23	0x3c3f41c0	0.011673391
24	0xbdceefaa	-0.10104306
25	0xbd2f8c49	-0.042858396
26	0xbdf47f3c	-0.119383305
27	0xbddc28d1	-0.107499726
28	0x3dd224a4	0.10260895
29	0xbd22b751	-0.039725605
30	0xbdf6cfac	-0.12051329
31	0x3d6cb660	0.057791114
32	0x3dd38d8a	0.10329731
33	0x3dbe71e1	0.092990644
34	0x3d542fa0	0.05180323
35	0x3dd625a0	0.10456395
36	0x3dd802bc	0.105473965
37	0xbcfd3025	-0.030906746
38	0x3d9816a9	0.07426197
39	0x3d48e0d0	0.049042523
40	0x3d4f367d	0.050589073
41	0x3d5912e8	0.052996546
42	0xbde081d2	-0.10962261
43	0xbdac335e	-0.08408235
44	0x3dbc22f5	0.09186355
45	0x3bd5c580	0.006523788
46	0x3dece10c	0.11566362
47	0xbce84718	-0.028354213
48	0x3d282ea7	0.041060116
49	0xbcf04330	-0.029328912
50	0xbd86f1fb	-0.06589123
51	0x3d1ae26e	0.037813596
52	0xbdfef2df	-0.12448668
53	0xbdd216e4	-0.10258272
54	0x3c792bc6	0.01520819
55	0xbd1a904c	-0.03773527
56	0xbd3912a0	-0.045183778
57	0xbd0f3246	-0.034960054
58	0xbda52fda	-0.080657676
59	0xbd19d20f	-0.037553843
60	0xbcd90a87	-0.026494278
61	0xbdaec906	-0.08534436
62	0x3c21beeb	0.009872179
63	0xbdcef7f1	-0.10105885
64	0xbbbb5122	-0.005716459
65	0x3d92c1a7	0.071658425
66	0x3b9cac67	0.004781294
67	0x3c8f1568	0.017466262
68	0xbcde8468	-0.027162746
69	0x3c577030	0.013149306
70	0x3c5f6846	0.013635701
71	0xbdd30df1	-0.103053935
72	0xbd8a976e	-0.06767164
73	0x3d94e643	0.072704814
74	0x3c2a40e0	0.010391444
75	0xbde4e93d	-0.11177299
76	0x3d144225	0.036195893
77	0xbdafd3da	-0.08585329
78	0xbd29f1f0	-0.041490495
79	0x3c049147	0.008091277
80	0x3dfaab32	0.12239684
81	0x3c3436b0	0.010999367
82	0x3d92dcae	0.071709976
83	0x3defc556	0.11707561
84	0xbdbb6f21	-0.091520555
85	0x3db87c1c	0.09008047
86	0x3c8aa261	0.016923131
87	0xbc3c74c0	-0.011502445
88	0x3c336ca0	0.010951191
89	0xbc9ec826	-0.019382548
90	0xbdadf728	-0.08494407
91	0x3d90e512	0.07074942
92	0xbc809116	-0.015694182
93	0xbdbd177b	-0.09232994
94	0x3df5ef88	0.120085776
95	0x3d1ce471	0.038303796
96	0x3dc34c6a	0.09536059
97	0xbd0bdf9e	-0.034148805
98	0xbc74faf9	-0.014952415
99	0xbe0947cd	-0.13406296
100	0xbe0f53b1	-0.1399677
101	0x3d35bc4f	0.04436904
102	0x3d2099db	0.039209228
103	0x3d57a569	0.05264798
104	0xbd59ef42	-0.05320669
105	0xbc91ee28	-0.017813757
106	0x3cecbff0	0.028900117
107	0xbdb486c2	-0.088147655
108	0xbe0a6647	-0.13515578
109	0x3ce6a378	0.02815412
110	0xbd81162a	-0.063030556
111	0xbdfd707a	-0.12374969
112	0xbd968f2b	-0.07351526
113	0xbdeb22fc	-0.11481282
114	0x3dc1f24a	0.09470041
115	0xbdcd02df	-0.10010313
116	0xbe0f9a50	-0.1402371
117	0x3d7485c4	0.05969788
118	0xbcb9f555	-0.022699991
119	0x3c1be760	0.009515613
120	0xbdfa9a30	-0.1223644
121	0x3aaf6273	0.0013380781
122	0x3d006050	0.03134185
123	0x3cb01c1e	0.021497782
124	0x3dc1a886	0.094559714
125	0x3d0b17a6	0.0339581
126	0xbd619460	-0.055073142
127	0xbd54c043	-0.051941168
128	0x3ddcbea0	0.10778546
129	0x3d24a63a	0.04019759
130	0xbdbf7709	-0.09348876
131	0x3db1835e	0.086676344
132	0xbd9f5508	-0.0777989
133	0x3be07c40	0.0068507493
134	0x3d7f4db3	0.06232996
135	0xbd3de297	-0.04635867
136	0xbd1f6915	-0.038918573
137	0xbd3affb1	-0.045654003
138	0x3cd7af78	0.026328787
139	0xbdbcfd5e	-0.092280135
140	0x3dd5c2f1	0.10437573
141	0xbc9961b0	-0.018723339
142	0xbd56ab5c	-0.052409515
143	0x3d4b8b8d	0.049693633
144	0x3d4e0d98	0.050305933
145	0xbd9fdba8	-0.07805568
146	0xbd6a7840	-0.057243586
147	0x3d2b3b44	0.041804567
148	0x3bbbd7a5	0.005732494
149	0x3dfada82	0.12248708
150	0x3ceffa8c	0.029294275
151	0xbcab9028	-0.020942762
152	0xbd3e04a8	-0.04639116
153	0x3dd9b714	0.106306225
154	0x3dd0496e	0.101702556
155	0x3da45b39	0.08025212
156	0x3cdda1bb	0.027054658
157	0x3b044831	0.002018463
158	0xbde5c456	-0.11219089
159	0x3d0ba884	0.034096256
160	0x3dda9efe	0.106748566
161	0xbdbeed86	-0.09322648
162	0xbe0777b9	-0.13229264
163	0x3ca2468b	0.019809028
164	0x3d9cf508	0.076639235
165	0xbd842e22	-0.06454112
166	0xbd698485	-0.057011146
167	0x3caed968	0.021343902
168	0x3d11d352	0.03560192
169	0xbd880d06	-0.06643109
170	0x3d855e8c	0.06512174
171	0xbdb4bef9	-0.08825488
172	0xbe0756f4	-0.13216764
173	0xbce7bb08	-0.028287426
174	0xbdeed322	-0.11661364
175	0xbd232dd0	-0.039838612
176	0xbd9b9c1d	-0.075981356
177	0xbd75e584	-0.060033336
178	0xbdc1ab4b	-0.094565
179	0x3ce0e0af	0.027450887
180	0xbda26c86	-0.079308555
181	0x3d8b080c	0.06788644
182	0x3ddf8ba1	0.10915304
183	0xbda4575c	-0.08024475
184	0xbbefb800	-0.0073156357
185	0xbd8ba800	-0.06819153
186	0xbcbee8c8	-0.023304358
187	0xbd36a84f	-0.044594105
188	0xbd9be2d7	-0.07611626
189	0x3ce5920c	0.028023742
190	0x3d8d017d	0.068850495
191	0x3c1903f2	0.00933932
192	0xbfc24f1c	-1.5180392
193	0x3e9d62cf	0.30739447
194	0x3f11f039	0.57007176
195	0xbc92e178	-0.017929778
196	0xbc44ec40	-0.012019217
197	0xbddd2386	-0.10797791
198	0x3f0fa529	0.5611139
199	0x3e9e214a	0.30884773
200	0x3ea1501f	0.3150644
201	0x3db36f6e	0.08761488
202	0xbdf254c4	-0.11832574
203	0xbfe99d9f	-1.8251227
204	0x3ee75373	0.45180854
205	0x3de5b490	0.1121608
206	0xbc97f888	-0.018551126
207	0x3e2eaad6	0.17057356
208	0xbc2b68c0	-0.010461986
209	0xbda461a2	-0.080264345
210	0xbbe61380	-0.0070213675
211	0x3d91f9ce	0.071277246
212	0x3e969017	0.29406807
213	0x3ca075e0	0.019587457
214	0x3e952988	0.29133248
215	0x3b38eac0	0.0028216094
216	0xbfab1cb3	-1.3368133
217	0x3e77920b	0.24176805
218	0xbdb5d82c	-0.08879122
219	0x3da01893	0.07817187
220	0x3da83c03	0.08214571
221	0x3e349634	0.17635423
222	0x3d888294	0.06665531
223	0xbd5e40a0	-0.05426085
224	0xbd9a5f00	-0.07537651
225	0x3dcc0309	0.099615164
226	0x3e462ef6	0.19353852
227	0x3eed6e88	0.4637339
228	0x3ea461bb	0.32105812
229	0x3ee8b00a	0.45446807
230	0x3c4d4d0c	0.012530576
231	0xbfb7f9f2	-1.4373152
232	0x3d97a0ba	0.07403703
233	0xbd92bbdc	-0.071647376
234	0xbd1b83f4	-0.037967637
235	0x3eb5e246	0.35524195
236	0x3ee5c3a8	0.44875836
237	0xbcb15550	-0.021647125
238	0x3d59a544	0.053136125
239	0xbdb1cda4	-0.08681801
240	0x3e040248	0.12891495
241	0xbdeddc90	-0.116143346
242	0x3cccb7d8	0.024990007
243	0x3de0c05f	0.10974192
244	0x3ce67ff5	0.028137187
245	0xbb615140	-0.0034380704
246	0xbe02e71e	-0.12783477
247	0xbc122730	-0.008920476
248	0x3dcbc694	0.09949985
249	0x3ea2bbc5	0.31783882
250	0xbc07b510	-0.008282915
251	0x3eb3dffd	0.35131827
252	0x3d03bf44	0.032164827
253	0x3ee89771	0.4542804
254	0x3e6a6f83	0.22894101
255	0x3e03f52d	0.12886496

network.2.bias f4 [64]
0	0xbdb2aa60	-0.08723903
1	0x3d5146f2	0.05109305
2	0xbda9e1ba	-0.08295007
3	0xbe43dcb5	-0.19127162
4	0x3d01589e	0.031578653
5	0x3db9d45c	0.090737075
6	0x3e991992	0.2990232
7	0x3d63fa0c	0.055658385
8	0xbc9d791f	-0.019222794
9	0xbdaa2caf	-0.08309304
10	0x3d8fe1c3	0.070254825
11	0xbe1c9e29	-0.15294708
12	0x3c6472ec	0.013943415
13	0xbcd0e7cc	-0.025501154
14	0xbdcada85	-0.099049605
15	0x3eb2de45	0.34935203
16	0x3d16eaf4	0.036845163
17	0xbce355e8	-0.027750924
18	0x3ddd69d6	0.10811202
19	0xbdc9f64d	-0.09861431
20	0xbe232f20	-0.15935946
21	0xbd3b0f24	-0.045668736
22	0x3a7f1600	0.0009730756
23	0x3c5acec0	0.013354957
24	0x3dacd859	0.084397025
25	0xbd950753	-0.072767876
26	0xbe70165a	-0.23446026
27	0x3f09380c	0.53601146
28	0xbe07ea15	-0.13272889
29	0xbcc64e05	-0.024207124
30	0xbe141e44	-0.1446467
31	0xbdcdc054	-0.10046449
32	0x3d2d5a0c	0.042322204
33	0xbd43307e	-0.047653668
34	0x3c861e54	0.016371883
35	0xbdce1854	-0.10063234
36	0xbe0adcf1	-0.13560845
37	0x3db07a7a	0.086171106
38	0xbe809137	-0.2511079
39	0xbdca03c3	-0.09863999
40	0xbe1e6be3	-0.15470843
41	0xbcc5476f	-0.024081914
42	0x3c824f55	0.01590697
43	0x3dc76344	0.0973573
44	0xbdc41fc2	-0.0957637
45	0x3c28965b	0.010289754
46	0x3f17124b	0.5901229
47	0xbe1d51ed	-0.15363283
48	0x3ed5cf1e	0.4175958
49	0xbe7dbf4c	-0.24780005
50	0x3ea1e7ab	0.3162206
51	0xbc987f85	-0.018615494
52	0xbe2193dd	-0.15779062
53	0x3eac63f8	0.3367002
54	0xbdcecaae	-0.10097252
55	0x3d10ff03	0.035399448
56	0xbe02ea8e	-0.12784788
57	0xbd8f1314	-0.06986061
58	0x3da02780	0.07820034
59	0x3dbfbb0f	0.093618505
60	0xbe254b9d	-0.16142125
61	0xbd44c9c0	-0.048043966
62	0xbd43908c	-0.047745273
63	0xbe369137	-0.17828833

network.4.weight f4 [4, 64]
0	0xbdce7ec0	-0.100827694
1	0xbdc90d7f	-0.09817027
2	0x3cfd45c1	0.03091705
3	0x3edc4049	0.43017796
4	0xbdb26e28	-0.08712417
5	0xbf2f6999	-0.68520504
6	0x3e50373c	0.2033357
7	0xbd3760c8	-0.044770032
8	0x3dc9c32a	0.09851678
9	0x3c80a1ae	0.015702095
10	0xbdca396c	-0.098742336
11	0x3ca14470	0.019685954
12	0xbd1dd83f	-0.038536306
13	0x3f01359e	0.5047244
14	0x3d686d24	0.05674471
15	0x3ea54224	0.32277024
16	0xbda82870	-0.08210838
17	0x3bed1a80	0.007235825
18	0xbdf0c85e	-0.11756967
19	0x3eae9290	0.34096193
20	0x3e7c1a87	0.24619494
21	0x3e045406	0.12922677
22	0x3df831ac	0.12118849
23	0xbdaac6b0	-0.08338678
24	0xbc5fbb4a	-0.013655493
25	0xbde90774	-0.11378375
26	0x3f510011	0.81640726
27	0x3ee8433e	0.45363802
28	0xbcdb3f3b	-0.02676355
29	0xbd98a3c2	-0.07453109
30	0x3f1c741a	0.61114657
31	0x3ded7afc	0.11595723
32	0xbd6223ec	-0.05521004
33	0xbcf70f25	-0.030158589
34	0xbd41ec22	-0.047344334
35	0xbdddac94	-0.10823932
36	0x3dda35fb	0.10654827
37	0xbdefe8b0	-0.117143035
38	0x3f2aa59f	0.6665897
39	0xbd2beab8	-0.041971892
40	0x3f09e0a9	0.5385843
41	0xbd823435	-0.06357614
42	0xbd475b0c	-0.048670813
43	0x3de9820d	0.11401758
44	0x3ed7435c	0.4204358
45	0x3de5c893	0.11219897
46	0x3f0a736a	0.5408236
47	0xbe9b79c1	-0.30366328
48	0x3ee5d198	0.4488647
49	0x3efe1b09	0.4963
50	0xbfa348db	-1.2756609
51	0xbf052599	-0.52010494
52	0x3dc11309	0.09427459
53	0x3ea92729	0.3303769
54	0xbc3e4f70	-0.011615619
55	0x3d7814c8	0.060566694
56	0xbd7fd78d	-0.062461425
57	0x3a40a700	0.00073491037
58	0x3e0217e4	0.12704426
59	0xbcde608c	-0.027145647
60	0x3e1bac1b	0.15202372
61	0x3d062d44	0.032758012
62	0x3d9dab47	0.07698684
63	0xbd9fa11e	-0.077944025
64	0xbdbedba4	-0.09319237
65	0xbb8f1645	-0.0043666684
66	0xbd989998	-0.07451171
67	0x3e7a9057	0.24469124
68	0x3d7f16d8	0.062277645
69	0xbf06c03f	-0.52637094
70	0x3e84e966	0.2595932
71	0xbda31712	-0.07963385
72	0xbd97a82c	-0.07405123
73	0xbc8e2238	-0.017350301
74	0x3dc9d150	0.09854376
75	0x3c3057d0	0.010763124
76	0xbd8eef6c	-0.0697926
77	0x3eb66dea	0.35630733
78	0xbd94dee2	-0.07269074
79	0x3ee8206e	0.45337242
80	0xbd8f8c98	-0.07009238
81	0xbd6e5a34	-0.058191493
82	0xbdc390f8	-0.09549135
83	0x3e9bcd07	0.3042986
84	0x3e6d5119	0.23175468
85	0xba371a21	-0.00069847895
86	0xbcff0550	-0.031130463
87	0x3de16fe0	0.110076666
88	0x3c123142	0.008922877
89	0x3cafb768	0.02144976
90	0x3f071cb1	0.52778155
91	0x3ebc18af	0.36737582
92	0x3deb5fc7	0.114928775
93	0xbd8850b7	-0.0665602
94	0x3efc642b	0.49295172
95	0xbdc2880c	-0.09498605
96	0x3dd4086a	0.10353167
97	0x3dd07f91	0.10180581
98	0xbd2dc025	-0.04241957
99	0xbd640174	-0.05566545
100	0x3e438a7c	0.19095796
101	0xbd98e996	-0.07466428
102	0x3ebc7d32	0.36814266
103	0x3d0f6e44	0.035017267
104	0x3e93683d	0.28790465
105	0x3d50d067	0.050979998
106	0xbd2c0282	-0.04199458
107	0x3cbedcbd	0.023298616
108	0x3eae9dc7	0.3410475
109	0xbd8013ed	-0.062538005
110	0x3ed922bb	0.4240931
111	0x3e70bc8e	0.23509428
112	0x3f01c507	0.50691265
113	0x3e96560f	0.29362532
114	0xbf89791a	-1.0740082
115	0xbf0af680	-0.5428238
116	0x3e0f0e97	0.1397041
117	0x3e928157	0.28614303
118	0x3d9582ee	0.073003635
119	0xbded9d74	-0.116022974
120	0xbde01c8d	-0.10942946
121	0x39df4800	0.0004258752
122	0xbdebeb4b	-0.11519488
123	0x3d4c6e34	0.049909785
124	0x3e5abdea	0.21361509
125	0xbdae805c	-0.08520576
126	0x3dacb72e	0.08433376
127	0x3e8c5355	0.27407327
128	0xbac58b79	-0.0015071473
129	0x3d9e1c75	0.077202715
130	0xbdbfa5b6	-0.09357779
131	0x3eb81b09	0.35958126
132	0x3deae4ae	0.114693984
133	0xbf2e2f79	-0.6804119
134	0x3ea93bae	0.33053344
135	0x3dd40bd0	0.103538156
136	0xbd009e8c	-0.031401202
137	0xbd3cf3d8	-0.046130985
138	0xbdcf2306	-0.10114102
139	0xbd1d728a	-0.03843931
140	0x3dee50fe	0.11636542
141	0x3dbea845	0.093094386
142	0xbc5d83d0	-0.013520196
143	0x3ee79a1f	0.45234773
144	0x3cf6ee18	0.030142829
145	0x3dcf34c6	0.101174876
146	0x3d17de64	0.037077323
147	0x3e6abb67	0.22923051
148	0x3ea27480	0.31729507
149	0xbc87728e	-0.016534116
150	0x3d5b6800	0.05356598
151	0x3d8a4b62	0.067526594
152	0x3db510fb	0.088411294
153	0x3dbec88e	0.093155965
154	0x3e70e9b5	0.23526652
155	0x3eed368c	0.46330678
156	0x3d945d7c	0.07244393
157	0x3cd0613f	0.025436996
158	0x3e4f9964	0.20273358
159	0x3c492260	0.012276262
160	0xbdd4583e	-0.10368393
161	0xbe0b2c8b	-0.1359121
162	0xbe06db7c	-0.13169664
163	0xbdb820a2	-0.08990599
164	0x3de9cea9	0.114163704
165	0x3da6ac3c	0.0813832
166	0x3e879340	0.2647953
167	0x3d216de0	0.039411426
168	0x3e7650a1	0.24054195
169	0x3dcd7d3a	0.10033651
170	0xbdc717bd	-0.097213246
171	0xbd8e07ce	-0.069350824
172	0x3e556cbb	0.20842259
173	0xbcf180da	-0.029480387
174	0x3ec09ca7	0.37619516
175	0x3ee8bc1f	0.45456025
176	0x3eda60b3	0.426519
177	0x3e481354	0.19538623
178	0xbfa8d4ba	-1.3189919
179	0xbf090e68	-0.5353761
180	0x3dccf80e	0.1000825
181	0x3e9a4a92	0.30135018
182	0xbdc5024c	-0.09619579
183	0xbcb0c930	-0.021580309
184	0xbdeb6860	-0.11494517
185	0xbcb86920	-0.022511065
186	0x3c4ae56a	0.012383798
187	0x3cad2cb8	0.021139488
188	0x3e92152e	0.28531784
189	0x3d9a42bc	0.0753226
190	0xbdd58410	-0.104255795
191	0x3ef16583	0.4714776
192	0xbdddef94	-0.108367115
193	0xbdb9991a	-0.09062405
194	0xbd80f654	-0.06296983
195	0x3e6c6177	0.23084055
196	0x3db27f38	0.08715671
197	0xbee23156	-0.44178265
198	0x3e8b8339	0.27248552
199	0x3d77b55c	0.060475692
200	0x3aa2f353	0.0012432135
201	0x3c4b679f	0.012414842
202	0xbd995e76	-0.0748872
203	0xbde2f4ca	-0.11081846
204	0xbd57cabc	-0.052683577
205	0x3ebe2a95	0.37141863
206	0x3da08a46	0.078388736
207	0x3e92f08e	0.28699154
208	0x3db622ae	0.088933334
209	0xbdbc1ca8	-0.09185153
210	0x3de6e794	0.11274639
211	0x3e21e607	0.15810405
212	0x3e351903	0.17685322
213	0xbd3759e3	-0.044763457
214	0x3ce27360	0.027642906
215	0xbdb1283e	-0.08650254
216	0x3d416e14	0.04722412
217	0x3c178400	0.00924778
218	0x3ea91274	0.3302189
219	0x3ed582ad	0.4170126
220	0xbd0648e1	-0.032784346
221	0xbdcb12f6	-0.09915726
222	0x3f0545cf	0.52059644
223	0x3cc55078	0.024086222
224	0xbdc350a2	-0.09536864
225	0x3c52fd56	0.012877783
226	0xbba44ebc	-0.0050142687
227	0xbb56c800	-0.0032773018
228	0x3e658463	0.22413783
229	0x3ca3b528	0.019983843
230	0x3f0dc514	0.5537884
231	0xbdb779f9	-0.08958811
232	0x3eb77661	0.35832503
233	0xbd73ff59	-0.05956969
234	0xbdd90faa	-0.10598691
235	0xbd11cd7c	-0.035596356
236	0x3db9cd3f	0.09072351
237	0xbc2af3b2	-0.010434078
238	0x3f0579bb	0.5213887
239	0x3e673f57	0.22582756
240	0x3ed984d9	0.42484167
241	0x3ebea24f	0.37233207
242	0xbf395140	-0.723896
243	0xbe1257fc	-0.14291376
244	0x3e8da643	0.2766591
245	0x3eb85e64	0.36009514
246	0x3dff054a	0.12452181
247	0xbac6a3a4	-0.001515497
248	0xbd253a70	-0.040338933
249	0x3d4c9bdc	0.049953327
250	0xbca32392	-0.019914422
251	0xbcfb1b82	-0.030652765
252	0x3e66ad65	0.22527082
253	0xbda49162	-0.08035542
254	0xbd6b463d	-0.05744003
255	0x3ed80b97	0.42196342

network.4.bias f4 [4]
0	0x3f051f56	0.5200094
1	0xbb87b967	-0.0041419747
2	0x3d8cd4c3	0.068765186
3	0x3f3c25a3	0.7349493

network.0.weight f4 [64, 5]
0	0x40926f51	4.5760884
1	0xbf3b2307	-0.7310032
2	0x3eedf0cf	0.46472785
3	0x3db4403b	0.088013135
4	0xbea7a708	-0.32744622
5	0xbf98d059	-1.1938583
6	0x3f5d21a1	0.8637944
7	0xbed7e482	-0.42166525
8	0x3e46c0ca	0.1940948
9	0x3f2cec3f	0.6754798
10	0xc0e909e4	-7.2824574
11	0x3d8d1362	0.068884626
12	0xbd0fe8c7	-0.035134103
13	0xbde81928	-0.11332923
14	0x3ec3c62b	0.38237128
15	0xbebd136e	-0.36928886
16	0xbed61238	-0.41810775
17	0xbe8669a8	-0.26252484
18	0xbb169d00	-0.0022981763
19	0xbdb84bf0	-0.08998859
20	0x3ec438b0	0.383245
21	0x3e4ad85c	0.19809097
22	0xbe9667ec	-0.2937616
23	0xbeb02c58	-0.34408832
24	0x3e27e4ec	0.1639592
25	0xbd9dfec8	-0.07714611
26	0x3e17f84c	0.14840811
27	0xbe77fee7	-0.24218331
28	0x3d5a0210	0.053224623
29	0xbddb4688	-0.10706812
30	0xc0fd9f10	-7.925667
31	0xbe7c25e7	-0.24623834
32	0xbea4e5aa	-0.3220647
33	0x3c9556e4	0.01822991
34	0x3ed6ec18	0.41977
35	0xbf92a1bb	-1.1455606
36	0x3f83b3ac	1.0289207
37	0xbeedac1d	-0.46420375
38	0xbec92d2e	-0.39292282
39	0xbe420662	-0.18947747
40	0xbf4be3fe	-0.79644763
41	0x3f81e8b1	1.0149137
42	0xbe1d2cd6	-0.15349135
43	0xbefc231e	-0.49245542
44	0x3ef2996a	0.4738267
45	0xc0427d0f	-3.038883
46	0x3eae3ac4	0.3402921
47	0x3ea1a845	0.31573692
48	0x3e3e0451	0.18556334
49	0xbd5997e2	-0.053123362
50	0x3e55b9c4	0.20871645
51	0xbebc9f49	-0.36840275
52	0xbe63607b	-0.22204773
53	0x3d46cb00	0.04853344
54	0x3e84ebb6	0.25961083
55	0x409d06e2	4.90709
56	0xbf1259ea	-0.5716845
57	0x3efbd2ac	0.49184167
58	0x3d6fdb1b	0.058558565
59	0xbed0fe2e	-0.40818924
60	0xc05b9978	-3.431242
61	0x3f37dd15	0.7182172
62	0xbe98da36	-0.29853982
63	0xbdd64376	-0.10462086
64	0x3ee972af	0.4559531
65	0xbdfec10c	-0.124391645
66	0x3e9f0014	0.31054747
67	0xbc7bf7e0	-0.015378922
68	0x3c9c6390	0.019090444
69	0xbe8715b5	-0.2638375
70	0xbe10f3d0	-0.14155507
71	0x3eb72aa6	0.35774726
72	0xbe9a9189	-0.3018916
73	0xbe22a6d4	-0.15883952
74	0xbece9b1d	-0.40352717
75	0xbfe0e8ac	-1.7571006
76	0x3f1c5781	0.6107102
77	0x3e1d32d8	0.15351427
78	0xbcd5a1fd	-0.026078219
79	0x3e147d4e	0.14500925
80	0x3e608e98	0.21929395
81	0x3ebd1648	0.36931062
82	0xbea4a7ee	-0.3215937
83	0x3eb7a0aa	0.35864764
84	0xbcb897f0	-0.022533387
85	0xc05abbd7	-3.4177148
86	0xbe99fdaf	-0.30076358
87	0x3dd6ee91	0.10494722
88	0x3ebbb321	0.36660102
89	0x3f1024a5	0.56305915
90	0xbee0839c	-0.4385041
91	0x3e5d993c	0.21640486
92	0xbe0edade	-0.13950679
93	0xbecbbe6a	-0.39793712
94	0xbe26c1ba	-0.16284838
95	0xbe5b0906	-0.21390161
96	0xbb192900	-0.0023370385
97	0x3e047540	0.12935352
98	0xbdef5c6c	-0.1168755
99	0x3d932218	0.07184237
100	0xbf6e0c6f	-0.9298772
101	0x3f83cfd8	1.0297804
102	0x3e8967ad	0.2683691
103	0xbd33596a	-0.043786444
104	0x3e3c8d5d	0.18413301
105	0xbe457836	-0.19284138
106	0xbecfc48a	-0.40579635
107	0xbed25f30	-0.41088247
108	0xbe109072	-0.14117602
109	0x3ec319ba	0.38105565
110	0xbfc39a05	-1.5281378
111	0x3f67505c	0.90356994
112	0x3e4ed04a	0.20196643
113	0x3d7a6359	0.0611299
114	0x3da87a50	0.08226454
115	0x3e0cd7fc	0.13754267
116	0xbe9cd562	-0.30631548
117	0xbeb0a26c	-0.34498918
118	0xbec76925	-0.38947406
119	0xbe8dabb4	-0.27670062
120	0x40a7c844	5.2431965
121	0xbf114695	-0.56748325
122	0x3db073ea	0.08615859
123	0x3e1cb1a6	0.15302143
124	0x3dfd8664	0.123791486
125	0xbf3835f8	-0.7195735
126	0x3f7c6617	0.98593277
127	0xbebe7f68	-0.37206578
128	0xbd9b0f50	-0.0757128
129	0x3dcb29f7	0.099201135
130	0x3ed33742	0.41253096
131	0xbda6d984	-0.081469566
132	0xbe3445fc	-0.17604822
133	0x3e4d6a54	0.20060092
134	0x3dfc0228	0.12305099
135	0xc060fd15	-3.515447
136	0x3ee1df02	0.44115454
137	0x3e20a534	0.1568802
138	0x3e84c1bc	0.25929058
139	0xbe3ccc08	-0.18437207
140	0xbf87a63e	-1.0597608
141	0x3f7a1503	0.9768831
142	0x3e7162cd	0.23572846
143	0x3e450daa	0.19243494
144	0x3de412fa	0.11136432
145	0xc009c64e	-2.1527286
146	0x3f0768f1	0.528945
147	0x3ebf96d6	0.37419766
148	0x3e32d781	0.1746502
149	0x3f205144	0.62624
150	0x3ed4e526	0.41581076
151	0xbdbb8fb4	-0.091582686
152	0xbe908f6e	-0.28234428
153	0xbec821c1	-0.39088252
154	0xbe57e04f	-0.2108166
155	0xc106d3cb	-8.426707
156	0xbec7b450	-0.39004755
157	0x3c478fa7	0.0121802455
158	0xbe9db36a	-0.30800945
159	0x3ca89abe	0.0205816
160	0xbc185220	-0.009296924
161	0xbea91254	-0.33021796
162	0x3d8d8cb0	0.069116
163	0x3dabec08	0.08394629
164	0xbec01788	-0.37517953
165	0xc0284381	-2.62912
166	0x3eb07d94	0.34470809
167	0xbdc94544	-0.098276645
168	0xbe5e1a6d	-0.21689768
169	0x3e68e435	0.22743304
170	0xc0bc7891	-5.8897176
171	0xbd36f17d	-0.044663895
172	0xbe917d44	-0.28415883
173	0xbeec27a3	-0.4612399
174	0x3e4e5ace	0.20151827
175	0xc047a2d1	-3.1193125
176	0x3f63729f	0.8884677
177	0x3b498454	0.003074904
178	0xbf07f65f	-0.5311031
179	0x3e7ab881	0.24484445
180	0xbfdc21c1	-1.7197801
181	0x3f10c253	0.56546515
182	0xbedbad0e	-0.42905468
183	0xbe0a118d	-0.13483258
184	0x3f2720a2	0.6528417
185	0xc06d13ca	-3.7043328
186	0x3f23fa83	0.64054126
187	0x3dcb87b5	0.099379934
188	0xbefd370e	-0.49456066
189	0x3e445f5f	0.19177006
190	0xc093c3b8	-4.6176414
191	0xbd5462a6	-0.05185189
192	0xbdb04141	-0.08606196
193	0x3ea6445d	0.32474032
194	0x3eaac5a2	0.33353907
195	0x409ba5a3	4.8639693
196	0xbf1779e5	-0.5917037
197	0x3ef3e79f	0.4763765
198	0x3e96d104	0.2945634
199	0xbed9977e	-0.42498392
200	0xc09fc1ab	-4.992391
201	0xbe5abd18	-0.21361196
202	0x3e37f9aa	0.17966333
203	0xbf0352e3	-0.5129835
204	0xbe4ef270	-0.2020967
205	0xbe3b0448	-0.18263352
206	0x3e9b8fde	0.303832
207	0x3e0d5dac	0.13805264
208	0xbdb70fd8	-0.08938569
209	0xbe778049	-0.2417003
210	0xbe0d41ae	-0.13794586
211	0xbeb9ed70	-0.36313963
212	0xbe2b0242	-0.1670008
213	0xbe30e740	-0.17275715
214	0x3ec3fd80	0.38279343
215	0xc0d1bfa4	-6.5546436
216	0xbdad393d	-0.08458183
217	0x3d98a464	0.0745323
218	0xbd57fea9	-0.052733097
219	0xbd4127bb	-0.04715703
220	0xc012ed60	-2.2957382
221	0x3f3f6131	0.7475768
222	0xbe97a41e	-0.296174
223	0xbcbe31d8	-0.023217127
224	0x3f117b29	0.5682855
225	0xbe1ae7ac	-0.15127438
226	0x3e6e14d4	0.23250133
227	0xbe1a3368	-0.15058672
228	0xbecc31b0	-0.3988166
229	0xbd5820d0	-0.052765667
230	0xbe24add8	-0.16081941
231	0xbd71a5e0	-0.05899608
232	0xbe9f59a4	-0.31123078
233	0x3ea646ba	0.32475835
234	0x3d329d50	0.043607056
235	0xbee3f4a6	-0.4452259
236	0xbeaafcd9	-0.33396032
237	0xbe58a677	-0.21157251
238	0x3e673360	0.22578192
239	0xbdd1590c	-0.102220625
240	0xc092a74f	-4.5829234
241	0x3da86003	0.08221438
242	0x3e558681	0.2085209
243	0xbec0ed6f	-0.37681147
244	0xbdf55533	-0.11979141
245	0xbe875d7c	-0.2643851
246	0x3da39bd0	0.07988703
247	0xbdc9b058	-0.09848088
248	0x3e1baf28	0.15203536
249	0xbdf98cdc	-0.1218507
250	0xbf0bd70d	-0.54625016
251	0x3f4da453	0.80328864
252	0x3e5b0ab4	0.21390802
253	0x3e42274b	0.18960302
254	0x3ee1ab3e	0.4407596
255	0xbf96c0d0	-1.1777592

network.0.bias f4 [64]
0	0x3f3dad24	0.74092317
1	0x3ec98674	0.39360392
2	0xbe636d0b	-0.22209565
3	0xbca859c0	-0.020550609
4	0xbed4074e	-0.41411823
5	0xbeb931c8	-0.36170793
6	0x3e602680	0.21889687
7	0x3e8c3723	0.27385816
8	0x3e431ab3	0.19053154
9	0x3e952fb8	0.2913797
10	0xbdf34830	-0.11879003
11	0x3f3c59a5	0.73574287
12	0x3e8b44d7	0.27200958
13	0xbe60b1d0	-0.2194283
14	0xbe73d372	-0.23811129
15	0x3e9901f7	0.29884312
16	0xbe116a9a	-0.14200822
17	0x3eee0256	0.46486157
18	0xbd68a288	-0.056795627
19	0xbe5bce5b	-0.21465437
20	0x3e2b52b7	0.16730772
21	0xbeb3a9cb	-0.3509048
22	0xbe93e57f	-0.2888603
23	0xbe5b04ce	-0.21388552
24	0x3f05e1d3	0.52297705
25	0x3e4aaa12	0.19791439
26	0xbedc6332	-0.4304443
27	0x3ecea1a5	0.403577
28	0x3ea2ea5b	0.31819424
29	0x3d918b40	0.07106638
30	0xbc9072e0	-0.017632902
31	0x3e92b149	0.28650883
32	0x3e6eca50	0.23319364
33	0x3e07dcc0	0.13267803
34	0x3e5cb408	0.21553051
35	0xbe74ab26	-0.23893413
36	0x3e8abcab	0.27097067
37	0xbdc37237	-0.09543269
38	0x3eacd8c0	0.33759117
39	0x3f3ba6e3	0.73301524
40	0x3e9fad96	0.31187123
41	0xbed496e9	-0.41521385
42	0xbe969720	-0.29412174
43	0x3ca243be	0.019807693
44	0xbb8e3c79	-0.004340705
45	0xbd8f3bc4	-0.06993821
46	0xbecf5265	-0.4049255
47	0x3e826df4	0.25474513
48	0x3ea35804	0.31903088
49	0x3d4ba970	0.049722135
50	0x3ecb8468	0.39749455
51	0x3d05bb27	0.032649186
52	0xbe1be87d	-0.15225406
53	0xbe48eeac	-0.19622296
54	0x3ebe01f4	0.37110865
55	0xbe8aafa5	-0.2708713
56	0xbeb59bec	-0.3547052
57	0xbe61337e	-0.21992299
58	0xbeba59bc	-0.36396587
59	0xbd99a6b0	-0.07502496
60	0x3e4bcbd0	0.19901967
61	0x3e8b4208	0.27198815
62	0xbef0c55f	-0.47025582
63	0x3e0c62d3	0.13709573

network.2.weight f4 [64, 64]
0	0xbc754d70	-0.014972076
1	0xbd8bfaf8	-0.06834978
2	0xbd22ca9a	-0.039743997
3	0x3c956dc0	0.01824081
4	0xbde40f6a	-0.111357525
5	0x3dbf0e3c	0.09328887
6	0xbddc84ea	-0.10767539
7	0xbd179764	-0.03700961
8	0xbd795acd	-0.06087761
9	0x3d49bf7b	0.049254876
10	0xbda691d2	-0.08133282
11	0xbdca0656	-0.0986449
12	0x3d7bd5d8	0.061483234
13	0x3dd657f0	0.104659915
14	0x3de8092e	0.11329876
15	0x3bf0c0d1	0.0073472043
16	0xbb6d4000	-0.0036201477
17	0x3d905516	0.07047479
18	0x3d235658	0.039877266
19	0xbd7f7bb0	-0.062373817
20	0xbbac580a	-0.0052595185
21	0xbd82ee20	-0.06393075
22	0xbd9c1e81	-0.07623006
23	0x3c3f41c0	0.011673391
24	0xbdceefaa	-0.10104306
25	0xbd2f8c49	-0.042858396
26	0xbdf47f3c	-0.119383305
27	0xbddc28d1	-0.107499726
28	0x3dd224a4	0.10260895
29	0xbd22b751	-0.039725605
30	0xbdf6cfac	-0.12051329
31	0x3d6cb660	0.057791114
32	0x3dd38d8a	0.10329731
33	0x3dbe71e1	0.092990644
34	0x3d542fa0	0.05180323
35	0x3dd625a0	0.10456395
36	0x3dd802bc	0.105473965
37	0xbcfd3025	-0.030906746
38	0x3d9816a9	0.07426197
39	0x3d48e0d0	0.049042523
40	0x3d4f367d	0.050589073
41	0x3d5912e8	0.052996546
42	0xbde081d2	-0.10962261
43	0xbdac335e	-0.08408235
44	0x3dbc22f5	0.09186355
45	0x3bd5c580	0.006523788
46	0x3dece10c	0.11566362
47	0xbce84718	-0.028354213
48	0x3d282ea7	0.041060116
49	0xbcf04330	-0.029328912
50	0xbd86f1fb	-0.06589123
51	0x3d1ae26e	0.037813596
52	0xbdfef2df	-0.12448668
53	0xbdd216e4	-0.10258272
54	0x3c792bc6	0.01520819
55	0xbd1a904c	-0.03773527
56	0xbd3912a0	-0.045183778
57	0xbd0f3246	-0.034960054
58	0xbda52fda	-0.080657676
59	0xbd19d20f	-0.037553843
60	0xbcd90a87	-0.026494278
61	0xbdaec906	-0.08534436
62	0x3c21beeb	0.009872179
63	0xbdcef7f1	-0.10105885
64	0xbbbb5122	-0.005716459
65	0x3d92c1a7	0.071658425
66	0x3b9cac67	0.004781294
67	0x3c8f1568	0.017466262
68	0xbcde8468	-0.027162746
69	0x3c577030	0.013149306
70	0x3c5f6846	0.013635701
71	0xbdd30df1	-0.103053935
72	0xbd8a976e	-0.06767164
73	0x3d94e643	0.072704814
74	0x3c2a40e0	0.010391444
75	0xbde4e93d	-0.11177299
76	0x3d144225	0.036195893
77	0xbdafd3da	-0.08585329
78	0xbd29f1f0	-0.041490495
79	0x3c049147	0.008091277
80	0x3dfaab32	0.12239684
81	0x3c3436b0	0.010999367
82	0x3d92dcae	0.071709976
83	0x3defc556	0.11707561
84	0xbdbb6f21	-0.091520555
85	0x3db87c1c	0.09008047
86	0x3c8aa261	0.016923131
87	0xbc3c74c0	-0.011502445
88	0x3c336ca0	0.010951191
89	0xbc9ec826	-0.019382548
90	0xbdadf728	-0.08494407
91	0x3d90e512	0.07074942
92	0xbc809116	-0.015694182
93	0xbdbd177b	-0.09232994
94	0x3df5ef88	0.120085776
95	0x3d1ce471	0.038303796
96	0x3dc34c6a	0.09536059
97	0xbd0bdf9e	-0.034148805
98	0xbc74faf9	-0.014952415
99	0xbe0947cd	-0.13406296
100	0xbe0f53b1	-0.1399677
101	0x3d35bc4f	0.04436904
102	0x3d2099db	0.039209228
103	0x3d57a569	0.05264798
104	0xbd59ef42	-0.05320669
105	0xbc91ee28	-0.017813757
106	0x3cecbff0	0.028900117
107	0xbdb486c2	-0.088147655
108	0xbe0a6647	-0.13515578
109	0x3ce6a378	0.02815412
110	0xbd81162a	-0.063030556
111	0xbdfd707a	-0.12374969
112	0xbd968f2b	-0.07351526
113	0xbdeb22fc	-0.11481282
114	0x3dc1f24a	0.09470041
115	0xbdcd02df	-0.10010313
116	0xbe0f9a50	-0.1402371
117	0x3d7485c4	0.05969788
118	0xbcb9f555	-0.022699991
119	0x3c1be760	0.009515613
120	0xbdfa9a30	-0.1223644
121	0x3aaf6273	0.0013380781
122	0x3d006050	0.03134185
123	0x3cb01c1e	0.021497782
124	0x3dc1a886	0.094559714
125	0x3d0b17a6	0.0339581
126	0xbd619460	-0.055073142
127	0xbd54c043	-0.051941168
128	0x3ddcbea0	0.10778546
129	0x3d24a63a	0.04019759
130	0xbdbf7709	-0.09348876
131	0x3db1835e	0.086676344
132	0xbd9f5508	-0.0777989
133	0x3be07c40	0.0068507493
134	0x3d7f4db3	0.06232996
135	0xbd3de297	-0.04635867
136	0xbd1f6915	-0.038918573
137	0xbd3affb1	-0.045654003
138	0x3cd7af78	0.026328787
139	0xbdbcfd5e	-0.092280135
140	0x3dd5c2f1	0.10437573
141	0xbc9961b0	-0.018723339
142	0xbd56ab5c	-0.052409515
143	0x3d4b8b8d	0.049693633
144	0x3d4e0d98	0.050305933
145	0xbd9fdba8	-0.07805568
146	0xbd6a7840	-0.057243586
147	0x3d2b3b44	0.041804567
148	0x3bbbd7a5	0.005732494
149	0x3dfada82	0.12248708
150	0x3ceffa8c	0.029294275
151	0xbcab9028	-0.020942762
152	0xbd3e04a8	-0.04639116
153	0x3dd9b714	0.106306225
154	0x3dd0496e	0.101702556
155	0x3da45b39	0.08025212
156	0x3cdda1bb	0.027054658
157	0x3b044831	0.002018463
158	0xbde5c456	-0.11219089
159	0x3d0ba884	0.034096256
160	0x3dda9efe	0.106748566
161	0xbdbeed86	-0.09322648
162	0xbe0777b9	-0.13229264
163	0x3ca2468b	0.019809028
164	0x3d9cf508	0.076639235
165	0xbd842e22	-0.06454112
166	0xbd698485	-0.057011146
167	0x3caed968	0.021343902
168	0x3d11d352	0.03560192
169	0xbd880d06	-0.06643109
170	0x3d855e8c	0.06512174
171	0xbdb4bef9	-0.08825488
172	0xbe0756f4	-0.13216764
173	0xbce7bb08	-0.028287426
174	0xbdeed322	-0.11661364
175	0xbd232dd0	-0.039838612
176	0xbd9b9c1d	-0.075981356
177	0xbd75e584	-0.060033336
178	0xbdc1ab4b	-0.094565
179	0x3ce0e0af	0.027450887
180	0xbda26c86	-0.079308555
181	0x3d8b080c	0.06788644
182	0x3ddf8ba1	0.10915304
183	0xbda4575c	-0.08024475
184	0xbbefb800	-0.0073156357
185	0xbd8ba800	-0.06819153
186	0xbcbee8c8	-0.023304358
187	0xbd36a84f	-0.044594105
188	0xbd9be2d7	-0.07611626
189	0x3ce5920c	0.028023742
190	0x3d8d017d	0.068850495
191	0x3c1903f2	0.00933932
192	0xbfc1e9c4	-1.5149465
193	0x3e9fd000	0.3121338
194	0x3f12de2e	0.5737027
195	0xbc92e178	-0.017929778
196	0xbc44ec40	-0.012019217
197	0xbddd2386	-0.10797791
198	0x3f102082	0.56299603
199	0x3ea118e0	0.3146429
200	0x3ea3c25c	0.31984222
201	0x3dbc9caa	0.09209569
202	0xbdf254c4	-0.11832574
203	0xbfe92ff0	-1.8217754
204	0x3ee9c3ef	0.45657298
205	0x3de5b490	0.1121608
206	0xbc97f888	-0.018551126
207	0x3e3361a6	0.17517719
208	0xbc2b68c0	-0.010461986
209	0xbd9bcb95	-0.076071896
210	0xbbe61380	-0.0070213675
211	0x3d91f9ce	0.071277246
212	0x3e98f77e	0.29876322
213	0x3ca075e0	0.019587457
214	0x3e97bf7b	0.29638276
215	0x3b38eac0	0.0028216094
216	0xbfaaaf20	-1.3334694
217	0x3e7cd3fc	0.2469024
218	0xbdb5d82c	-0.08879122
219	0x3da970b4	0.082734495
220	0x3db1c36a	0.086798504
221	0x3e39399d	0.18088384
222	0x3d888294	0.06665531
223	0xbd50d3a6	-0.050983094
224	0xbd9a5f00	-0.07537651
225	0x3dd5c7ff	0.10438537
226	0x3e48bd86	0.19603547
227	0x3ef00835	0.4688126
228	0x3ea6d442	0.32583815
229	0x3eeb2b3b	0.4593142
230	0x3c89e0c9	0.016830819
231	0xbfb78f79	-1.4340659
232	0x3d9e6cdb	0.07735606
233	0xbd92bbdc	-0.071647376
234	0xbd1b83f4	-0.037967637
235	0x3eb5e246	0.35524195
236	0x3ee84d36	0.45371407
237	0xbcb15550	-0.021647125
238	0x3d59a544	0.053136125
239	0xbdb1cda4	-0.08681801
240	0x3e085ca0	0.13316584
241	0xbdeddc90	-0.116143346
242	0x3cf221bc	0.029557101
243	0x3dea169c	0.11430094
244	0x3d03b890	0.032158434
245	0xbb615140	-0.0034380704
246	0xbdff23a2	-0.12457968
247	0xbc122730	-0.008920476
248	0x3dcbc694	0.09949985
249	0x3ea552bd	0.32289687
250	0xbc07b510	-0.008282915
251	0x3eb673b0	0.35635138
252	0x3d1683be	0.036746733
253	0x3eea86dd	0.45806018
254	0x3e6f787b	0.23385803
255	0x3e08f492	0.13374546

network.2.bias f4 [64]
0	0xbdb2aa60	-0.08723903
1	0x3d5146f2	0.05109305
2	0xbda9e1ba	-0.08295007
3	0xbe3f960c	-0.18709582
4	0x3d01589e	0.031578653
5	0x3db9d45c	0.090737075
6	0x3e9ac82f	0.30230853
7	0x3d63fa0c	0.055658385
8	0xbc9d791f	-0.019222794
9	0xbdaa2caf	-0.08309304
10	0x3d8fe1c3	0.070254825
11	0xbe1c9e29	-0.15294708
12	0x3c6472ec	0.013943415
13	0xbcbeb978	-0.023281798
14	0xbdcada85	-0.099049605
15	0x3eb478c8	0.352484
16	0x3d16eaf4	0.036845163
17	0xbce355e8	-0.027750924
18	0x3ddd69d6	0.10811202
19	0xbdc2bb64	-0.09508398
20	0xbe1e5e6a	-0.15465704
21	0xbd3b0f24	-0.045668736
22	0x3a7f1600	0.0009730756
23	0x3c5acec0	0.013354957
24	0x3dacd859	0.084397025
25	0xbd950753	-0.072767876
26	0xbe6d9db9	-0.23204698
27	0x3f09ed70	0.53877926
28	0xbe07ea15	-0.13272889
29	0xbcc64e05	-0.024207124
30	0xbe141e44	-0.1446467
31	0xbdcdc054	-0.10046449
32	0x3d2d5a0c	0.042322204
33	0xbd43307e	-0.047653668
34	0x3c861e54	0.016371883
35	0xbdce1854	-0.10063234
36	0xbe077dd3	-0.13231592
37	0x3db07a7a	0.086171106
38	0xbe809137	-0.2511079
39	0xbdca03c3	-0.09863999
40	0xbe1b4d1e	-0.15166137
41	0xbcc5476f	-0.024081914
42	0x3c824f55	0.01590697
43	0x3dc76344	0.0973573
44	0xbdbd6422	-0.092476144
45	0x3c28965b	0.010289754
46	0x3f17ac1e	0.59247005
47	0xbe1a6ae8	-0.15079844
48	0x3ed72a11	0.42024282
49	0xbe7addea	-0.24498716
50	0x3ea1e7ab	0.3162206
51	0xbc987f85	-0.018615494
52	0xbe1eb454	-0.15498477
53	0x3eadc02f	0.33935687
54	0xbdcecaae	-0.10097252
55	0x3d10ff03	0.035399448
56	0xbe02ea8e	-0.12784788
57	0xbd8f1314	-0.06986061
58	0x3da02780	0.07820034
59	0x3dbfbb0f	0.093618505
60	0xbe205948	-0.15659058
61	0xbd44c9c0	-0.048043966
62	0xbd43908c	-0.047745273
63	0xbe31ff7a	-0.17382613

network.4.weight f4 [4, 64]
0	0xbdce7ec0	-0.100827694
1	0xbdc90d7f	-0.09817027
2	0x3cfd45c1	0.03091705
3	0x3eddd38a	0.43325454
4	0xbdb26e28	-0.08712417
5	0xbf2f6999	-0.68520504
6	0x3e5192cf	0.2046616
7	0xbd3760c8	-0.044770032
8	0x3dc9c32a	0.09851678
9	0x3c80a1ae	0.015702095
10	0xbdca396c	-0.098742336
11	0x3ca14470	0.019685954
12	0xbd1dd83f	-0.038536306
13	0x3f02054f	0.5078935
14	0x3d686d24	0.05674471
15	0x3ea5ed42	0.32407576
16	0xbda82870	-0.08210838
17	0x3bed1a80	0.007235825
18	0xbdf0c85e	-0.11756967
19	0x3eb025bc	0.3440379
20	0x3e7f5012	0.24932888
21	0x3e045406	0.12922677
22	0x3df831ac	0.12118849
23	0xbdaac6b0	-0.08338678
24	0xbc5fbb4a	-0.013655493
25	0xbde90774	-0.11378375
26	0x3f51cdd3	0.8195469
27	0x3ee8ea59	0.45491293
28	0xbcdb3f3b	-0.02676355
29	0xbd98a3c2	-0.07453109
30	0x3f1c741a	0.61114657
31	0x3ded7afc	0.11595723
32	0xbd6223ec	-0.05521004
33	0xbcf70f25	-0.030158589
34	0xbd41ec22	-0.047344334
35	0xbdddac94	-0.10823932
36	0x3de0afec	0.109710544
37	0xbdefe8b0	-0.117143035
38	0x3f2aa59f	0.6665897
39	0xbd2beab8	-0.041971892
40	0x3f0aad8d	0.5417107
41	0xbd823435	-0.06357614
42	0xbd475b0c	-0.048670813
43	0x3de9820d	0.11401758
44	0x3ed8d938	0.42353225
45	0x3de5c893	0.11219897
46	0x3f0ac5c8	0.5420804
47	0xbe99da3f	-0.3004932
48	0x3ee6798d	0.4501461
49	0x3effb6c9	0.49944142
50	0xbfa348db	-1.2756609
51	0xbf052599	-0.52010494
52	0x3dc79f42	0.09747173
53	0x3ea9ce7e	0.33165354
54	0xbc3e4f70	-0.011615619
55	0x3d7814c8	0.060566694
56	0xbd7fd78d	-0.062461425
57	0x3a40a700	0.00073491037
58	0x3e0217e4	0.12704426
59	0xbcde608c	-0.027145647
60	0x3e1ef46d	0.15522929
61	0x3d062d44	0.032758012
62	0x3d9dab47	0.07698684
63	0xbd95800d	-0.072998144
64	0xbdbedba4	-0.09319237
65	0xbb8f1645	-0.0043666684
66	0xbd989998	-0.07451171
67	0x3e7a2224	0.24427086
68	0x3d7f16d8	0.062277645
69	0xbf06c03f	-0.52637094
70	0x3e8497ea	0.2589715
71	0xbda31712	-0.07963385
72	0xbd97a82c	-0.07405123
73	0xbc8e2238	-0.017350301
74	0x3dc9d150	0.09854376
75	0x3c3057d0	0.010763124
76	0xbd8eef6c	-0.0697926
77	0x3eb635e6	0.35587996
78	0xbd94dee2	-0.07269074
79	0x3ee7d002	0.45275885
80	0xbd8f8c98	-0.07009238
81	0xbd6e5a34	-0.058191493
82	0xbdc390f8	-0.09549135
83	0x3e9b9602	0.30387884
84	0x3e6ce364	0.23133618
85	0xba371a21	-0.00069847895
86	0xbcff0550	-0.031130463
87	0x3de16fe0	0.110076666
88	0x3c123142	0.008922877
89	0x3cafb768	0.02144976
90	0x3f0700cc	0.5273559
91	0x3ebbc7d7	0.36675903
92	0x3deb5fc7	0.114928775
93	0xbd8850b7	-0.0665602
94	0x3efc642b	0.49295172
95	0xbdc2880c	-0.09498605
96	0x3dd4086a	0.10353167
97	0x3dd07f91	0.10180581
98	0xbd2dc025	-0.04241957
99	0xbd640174	-0.05566545
100	0x3e431b43	0.19053368
101	0xbd98e996	-0.07466428
102	0x3ebc7d32	0.36814266
103	0x3d0f6e44	0.035017267
104	0x3e93308a	0.2874797
105	0x3d50d067	0.050979998
106	0xbd2c0282	-0.04199458
107	0x3cbedcbd	0.023298616
108	0x3eae668b	0.3406261
109	0xbd8013ed	-0.062538005
110	0x3ed8d20e	0.4234776
111	0x3e704988	0.2346555
112	0x3f019cb7	0.5062975
113	0x3e961e4a	0.29319984
114	0xbf89791a	-1.0740082
115	0xbf0af680	-0.5428238
116	0x3e0ea010	0.13928246
117	0x3e923023	0.2855235
118	0x3d9582ee	0.073003635
119	0xbded9d74	-0.116022974
120	0xbde01c8d	-0.10942946
121	0x39df4800	0.0004258752
122	0xbdebeb4b	-0.11519488
123	0x3d4c6e34	0.049909785
124	0x3e5a4f46	0.21319303
125	0xbdae805c	-0.08520576
126	0x3dacb72e	0.08433376
127	0x3e8c210d	0.27368966
128	0xbac58b79	-0.0015071473
129	0x3d9e1c75	0.077202715
130	0xbdbfa5b6	-0.09357779
131	0x3ebb0a3a	0.3653124
132	0x3deae4ae	0.114693984
133	0xbf2e2f79	-0.6804119
134	0x3eabc808	0.3355105
135	0x3dd40bd0	0.103538156
136	0xbd009e8c	-0.031401202
137	0xbd3cf3d8	-0.046130985
138	0xbdcf2306	-0.10114102
139	0xbd1d728a	-0.03843931
140	0x3dee50fe	0.11636542
141	0x3dca3ed5	0.098752655
142	0xbc5d83d0	-0.013520196
143	0x3eea1e23	0.45726117
144	0x3cf6ee18	0.030142829
145	0x3dcf34c6	0.101174876
146	0x3d17de64	0.037077323
147	0x3e7096d4	0.23495036
148	0x3ea56972	0.3230701
149	0xbc87728e	-0.016534116
150	0x3d5b6800	0.05356598
151	0x3d8a4b62	0.067526594
152	0x3db510fb	0.088411294
153	0x3dbec88e	0.093155965
154	0x3e76cd8e	0.2410185
155	0x3eefaad8	0.4681003
156	0x3d945d7c	0.07244393
157	0x3cd0613f	0.025436996
158	0x3e4f9964	0.20273358
159	0x3c492260	0.012276262
160	0xbdd4583e	-0.10368393
161	0xbe0b2c8b	-0.1359121
162	0xbe06db7c	-0.13169664
163	0xbdb820a2	-0.08990599
164	0x3df5a7c4	0.119948894
165	0x3da6ac3c	0.0813832
166	0x3e879340	0.2647953
167	0x3d216de0	0.039411426
168	0x3e7c2dcd	0.24626847
169	0x3dcd7d3a	0.10033651
170	0xbdc717bd	-0.097213246
171	0xbd8e07ce	-0.069350824
172	0x3e5b4fc6	0.2141715
173	0xbcf180da	-0.029480387
174	0x3ec3015a	0.3808697
175	0x3eebac17	0.46029732
176	0x3edcd4bb	0.4313105
177	0x3e4dee65	0.20110472
178	0xbfa8d4ba	-1.3189919
179	0xbf090e68	-0.5353761
180	0x3dd89d16	0.10576837
181	0x3e9cc341	0.30617717
182	0xbdc5024c	-0.09619579
183	0xbcb0c930	-0.021580309
184	0xbdeb6860	-0.11494517
185	0xbcb86920	-0.022511065
186	0x3c4ae56a	0.012383798
187	0x3cad2cb8	0.021139488
188	0x3e9512e7	0.29115984
189	0x3d9a42bc	0.0753226
190	0xbdd58410	-0.104255795
191	0x3ef41d52	0.4767862
192	0xbdddef94	-0.108367115
193	0xbdb9991a	-0.09062405
194	0xbd80f654	-0.06296983
195	0x3e6b0eca	0.2295486
196	0x3db27f38	0.08715671
197	0xbee23156	-0.44178265
198	0x3e8bfced	0.27341405
199	0x3d77b55c	0.060475692
200	0x3aa2f353	0.0012432135
201	0x3c4b679f	0.012414842
202	0xbd995e76	-0.0748872
203	0xbde2f4ca	-0.11081846
204	0xbd57cabc	-0.052683577
205	0x3ebd5fa5	0.36987033
206	0x3da08a46	0.078388736
207	0x3e936809	0.2879031
208	0x3db622ae	0.088933334
209	0xbdbc1ca8	-0.09185153
210	0x3de6e794	0.11274639
211	0x3e2087c4	0.1567679
212	0x3e33e4ed	0.17567797
213	0xbd3759e3	-0.044763457
214	0x3ce27360	0.027642906
215	0xbdb1283e	-0.08650254
216	0x3d416e14	0.04722412
217	0x3c178400	0.00924778
218	0x3ea854c9	0.32877186
219	0x3ed5f577	0.41788837
220	0xbd0648e1	-0.032784346
221	0xbdcb12f6	-0.09915726
222	0x3f0545cf	0.52059644
223	0x3cc55078	0.024086222
224	0xbdc350a2	-0.09536864
225	0x3c52fd56	0.012877783
226	0xbba44ebc	-0.0050142687
227	0xbb56c800	-0.0032773018
228	0x3e640ab6	0.22269711
229	0x3ca3b528	0.019983843
230	0x3f0dc514	0.5537884
231	0xbdb779f9	-0.08958811
232	0x3eb6bcf5	0.35691038
233	0xbd73ff59	-0.05956969
234	0xbdd90faa	-0.10598691
235	0xbd11cd7c	-0.035596356
236	0x3db7261c	0.08942816
237	0xbc2af3b2	-0.010434078
238	0x3f05b0fc	0.5222318
239	0x3e66d5aa	0.22542444
240	0x3ed9f781	0.42571643
241	0x3ebde32a	0.37087375
242	0xbf395140	-0.723896
243	0xbe1257fc	-0.14291376
244	0x3e8cd00f	0.27502486
245	0x3eb8d2c8	0.36098313
246	0x3dff054a	0.12452181
247	0xbac6a3a4	-0.001515497
248	0xbd253a70	-0.040338933
249	0x3d4c9bdc	0.049953327
250	0xbca32392	-0.019914422
251	0xbcfb1b82	-0.030652765
252	0x3e656e57	0.22405373
253	0xbda49162	-0.08035542
254	0xbd6b463d	-0.05744003
255	0x3ed6bc4b	0.4194053

network.4.bias f4 [4]
0	0x3f0569f4	0.52114797
1	0xbb9b961a	-0.004748118
2	0x3d94a959	0.07258863
3	0x3f3c50e8	0.73560953
