models/dqn_agent_2.pt (torch, 86724 bytes, 24 tensors)

network.0.weight f4 [64, 5]
000000 90 7b 8d 3d e8 2d e8 3d 9b 59 a9 be 44 ee 82 3e
       0.06908333 0.11336881 -0.33076176 0.25572407
000010 14 f9 8a 3e b4 3e bb c0 a6 4e f4 3b 27 2c c6 be
       0.27143157 -5.851404 0.0074556647 -0.3870556
000020 b9 b5 d9 3c 58 37 c6 3e fc 73 da bf 8e 6c 1d 3f
       0.02657591 0.387141 -1.7066646 0.61493766
000030 56 73 6b 3e d4 a3 bd 3e 73 c1 0b 3f 64 04 f2 bd
       0.22993216 0.37039053 0.54592055 -0.11817244
000040 0a ef c8 be 78 e1 d2 bd 48 1d 94 be c4 ce 3f be
       -0.39244872 -0.10296911 -0.2892859 -0.18731219
000050 eb b0 2d be bf 9c e6 3d 83 8c 9e 3d 61 8b 06 be
       -0.1696202 0.11260366 0.07741644 -0.13139106
000060 59 18 23 3e b2 1a 8f c0 5d 2b 29 3f 1b 8a 07 bf
       0.15927257 -4.4720087 0.6608179 -0.5294511
000070 ce 3c ea be 8e f5 ce 3e 34 45 1d be fb a5 cb be
       -0.45749515 0.40421718 -0.1535843 -0.3977507
000080 92 ff cc be 28 a2 0a 3d 72 99 3d be 26 a1 c6 bf
       -0.40038735 0.03384605 -0.18515566 -1.5517929
000090 b0 8a 12 3f 63 33 ff bd fa 92 2c bd cc 29 df 3e
       0.5724287 -0.12460973 -0.042132355 0.43586576
0000a0 c4 cb 63 3e fc 28 cc bd a8 09 dd 3d ce c9 d7 3e
       0.22245699 -0.09968755 0.107928574 0.42146152
0000b0 bc 55 b2 be 78 d0 0b 40 29 c7 80 bd bd 8b 12 bd
       -0.34831035 2.184599 -0.06287987 -0.035777796
0000c0 56 b8 d5 bc 4b 18 02 3e c7 7b eb bf ff c6 22 3f
       -0.026088875 0.1270458 -1.8397149 0.63584894
0000d0 0b 78 cc bc 1d 06 1a be 9e 2d bc 3e 3c 11 ba c0
       -0.024959585 -0.15041395 0.36753553 -5.814604
0000e0 8e a6 d1 3d 2d 13 7c bd 49 18 38 be b3 42 10 3e
       0.10236846 -0.061541725 -0.17978014 0.14087944
0000f0 52 c3 40 c0 62 c2 63 be 4e 81 f0 3d f9 34 1e be
       -3.0119214 -0.2224212 0.11743413 -0.15449895
000100 e4 0b d5 3e 65 ae b2 bf 26 fc 27 3f 1e e6 45 be
       0.41610634 -1.3959471 0.65619123 -0.19326064
000110 39 d0 57 3c da 92 f5 3e e3 1a eb bf c8 58 fb 3e
       0.013172203 0.479636 -1.836758 0.49091172
000120 6c be d1 be e8 d1 76 3d 1c 23 04 3f f3 ea 53 be
       -0.40965593 0.060258776 0.5161607 -0.20695095
000130 d0 cb 1d be 9c fd c8 3e 7f 38 ac be e5 25 af be
       -0.1540978 0.3925599 -0.33636853 -0.342086
000140 b1 cb c2 bf 83 ce 34 3f a5 fe ff 3d 68 f5 6e 3c
       -1.5218412 0.7062761 0.124997415 0.014584877
000150 84 8a f1 bd b5 cf f6 bf a2 26 42 3f 8a 43 b2 be
       -0.11793998 -1.9282137 0.758402 -0.34817153
000160 51 24 da be d7 6e 9e 3e b0 e0 68 be a3 65 d9 be
       -0.42605832 0.3094394 -0.22741961 -0.42460355
000170 6e 09 c8 be c6 84 8f 3e ea 7d ae 3e 90 b8 b9 be
       -0.39069694 0.28030986 0.3408044 -0.36273623
000180 c9 9a 8e be 00 42 5b be 5c 5c 81 3e 00 be 69 3e
       -0.27852467 -0.21411896 0.25265777 0.22826385
000190 ea 86 b3 c0 4d 74 2c 3c f8 64 ab be 46 07 ac be
       -5.610219 0.010525775 -0.3347547 -0.335993
0001a0 e5 15 cf 3e 4a 16 16 be f8 1b d9 3d 20 a0 36 be
       0.40446392 -0.1465694 0.10601038 -0.1783452
0001b0 cc 94 a4 3e f0 a0 bf 3e 81 30 11 c0 dc 97 e6 3d
       0.32144773 0.37427473 -2.2685854 0.112594336
0001c0 a5 66 f9 3d 1b b1 31 3e e9 bf 43 3e 98 fa dc c0
       0.12177781 0.17352717 0.19116177 -6.90559
0001d0 59 c6 68 3e ab 1a 93 be d6 e2 3f 3e d2 5a e6 3e
       0.22731914 -0.28731284 0.18738875 0.44991165
0001e0 a6 5e 79 be 86 b1 cf 3e 4c 82 e4 be dc d4 83 be
       -0.24352512 0.40565127 -0.4463066 -0.25748336
0001f0 f9 24 b7 be c0 42 14 3d 94 22 e1 3e b9 0b d9 be
       -0.35770395 0.03619647 0.43971694 -0.42391756
000200 f0 b2 89 bd 48 0a 54 bd f8 93 04 c0 c6 f0 13 bd
       -0.06723583 -0.051767617 -2.0715313 -0.03611829
000210 e4 71 de 3d 49 4e 6c bd de 8b b6 3e 18 1e 76 be
       0.10861567 -0.057691846 0.35653585 -0.24034917
000220 f0 0f 62 3d e0 e7 80 3e 2c 34 b1 be 9f 85 d7 be
       0.05519098 0.25176907 -0.34610116 -0.42094132
000230 b8 e1 2f 3e b8 9e bc bd 50 bb 37 be b0 bc b0 3d
       0.17175949 -0.09209961 -0.17942548 0.08629739
000240 80 94 2d be 8b 2a e0 c0 fa d1 0e 3e 1c 97 ee be
       -0.1695118 -7.005193 0.13947287 -0.46599662
000250 e5 b0 1a 3d 28 f8 43 3e 40 c1 b9 c0 4f db 01 3c
       0.037766356 0.19137633 -5.80484 0.007925822
000260 e3 f0 1b bc dd 0b e4 bd f9 03 cb 3e 5d dd a4 bf
       -0.009517881 -0.11135075 0.39651468 -1.2880055
000270 c9 c9 90 3e 8a d9 ad 3e e6 f1 d1 be fc 9f e0 3e
       0.2827895 0.33955032 -0.41004866 0.43872058
000280 78 3e 08 c1 39 51 b5 3e 71 ef 63 be da fd 86 be
       -8.515251 0.3541353 -0.22259308 -0.26365548
000290 c2 b9 05 3f 1c 23 45 c0 3d 5a 49 3e f7 5e 11 be
       0.5223657 -3.080268 0.1966333 -0.14196382
0002a0 5c bb ff be 3f 73 4e 3e c2 22 e1 c0 77 4c a1 3d
       -0.4994763 0.2016115 -7.035493 0.07875913
0002b0 db 25 b3 be 1d e4 86 be 29 d6 ea 3e 37 ff 6a be
       -0.3498982 -0.26345912 0.45866516 -0.22948919
0002c0 20 03 ae 3e 16 c1 83 be 62 a9 c2 be a0 2d 88 3e
       0.3398676 -0.2573325 -0.38019854 0.2659731
0002d0 28 81 23 3e 71 dd 9d be 60 20 d3 be 5e 3c 2e be
       0.15967238 -0.3083301 -0.41235638 -0.17015216
0002e0 d4 8e 08 3e 31 24 91 c0 cb 40 3e bf 00 3d 9c 3e
       0.13335735 -4.535668 -0.74317616 0.3051529
0002f0 b5 31 8b bd 9e 59 35 3e 50 b6 3a be 38 60 e0 3e
       -0.0679659 0.17709967 -0.18233609 0.4382341
000300 f9 38 4b be 9c d9 a2 bd 70 b1 69 3d 1b 8d bd bf
       -0.19845952 -0.07951662 0.057053983 -1.4808687
000310 ed 26 c0 3e c9 1e 78 3e eb 44 52 be 74 79 b8 3c
       0.37529698 0.24230494 -0.20534103 0.02251885
000320 c9 41 eb bf b0 42 43 3e ed 49 0d 3e 20 b9 6d be
       -1.8379451 0.19068408 0.13797732 -0.23215151
000330 ec d8 75 be b8 e9 d1 bf 40 a2 35 3f fc 49 3b bc
       -0.2400853 -1.639945 0.709507 -0.0114312135
000340 25 86 4b 3c 4c d2 2d 3e 63 c4 9e 3e e4 d9 3c 3f
       0.012422119 0.16974753 0.31009206 0.73769975
000350 18 aa a1 be ae a8 17 bf 27 5e cc be d4 ff 81 3e
       -0.31575084 -0.5924176 -0.39915583 0.25390494
000360 17 1a 54 be 82 9f e4 3e b0 29 9f 3e 53 ed c0 be
       -0.20713077 0.44652945 0.31086493 -0.37681064
000370 d4 d6 e1 3e 00 ce ea bb 60 6d ab be f0 b8 dc bd
       0.44109213 -0.0071656704 -0.33481884 -0.107774615
000380 a4 4a 1e be ed ea 72 c0 22 f6 99 bd 58 f2 94 be
       -0.1545816 -3.7955887 -0.07517649 -0.29091144
000390 31 19 b5 be 32 67 41 3e 49 86 d3 c0 15 c8 e4 3b
       -0.35370782 0.18887022 -6.610142 0.0069818594
0003a0 dc c4 83 be 00 82 f4 3b 11 68 f3 3e 44 da 34 be
       -0.2573613 0.0074617863 0.47540334 -0.17661387
0003b0 d0 d2 5b 3d 1c 02 3b 3e 70 22 a4 be 9a 49 c0 be
       0.053667843 0.18262523 -0.32057524 -0.37556154
0003c0 cc e0 fd bd a4 db 00 3e 46 0a b9 3e ea 09 68 be
       -0.12396392 0.12583786 0.3614065 -0.22660032
0003d0 c3 dc e0 be 94 8b f9 bf 48 a6 b1 3e 3e 45 a8 3e
       -0.43918428 -1.9495721 0.34697175 0.32865328
0003e0 c6 d0 ac be 64 e4 23 3e d0 b3 b7 bf d9 73 2d 3f
       -0.33753031 0.16005093 -1.435175 0.67754894
0003f0 7d 25 1e bd 77 c7 b5 3c bf 41 05 3f 92 82 56 be
       -0.03860997 0.022189839 0.52053446 -0.20948246

network.0.bias f4 [64]
000000 ec 37 2a be db ae c0 3c fd 68 5f be 28 2a b4 3d
       -0.16622895 0.023520878 -0.21817394 0.08797103
000010 e1 38 bd be 54 76 d0 bd fe 7c 2c be f1 a0 61 bd
       -0.36957458 -0.10178819 -0.16844556 -0.055085126
000020 1c 31 92 be 03 ae 42 3e a4 80 90 3e 87 18 15 be
       -0.28553092 0.19011693 0.28223145 -0.14560138
000030 17 20 a6 be 3e 61 8d bd f7 ef cc bd c2 9d 41 be
       -0.32446358 -0.06903313 -0.10006707 -0.18907836
000040 b8 96 00 be 70 ee ab 3e 34 58 8f 3e 14 78 98 bd
       -0.12557495 0.3358035 0.2799698 -0.07444778
000050 70 a6 32 bd a1 69 bc be c5 41 86 3e 08 b4 b2 be
       -0.04361576 -0.36799338 0.26222053 -0.34902978
000060 a2 78 3f be 3e 67 ce be c0 75 60 be b8 ac a0 bd
       -0.18698362 -0.40313143 -0.21919918 -0.078454435
000070 aa c3 4b be cb c7 30 3e a8 1c b6 be 67 b4 70 3d
       -0.19898859 0.17263715 -0.35568738 0.058765795
000080 a6 fd a5 be 84 1e 6b be 8e 24 12 be 16 d9 c2 be
       -0.3242008 -0.2296086 -0.14271757 -0.38056248
000090 40 ee d1 3d 28 19 d1 3d a4 7d 97 be 15 d9 46 3e
       0.10250521 0.10209876 -0.29588044 0.19418748
0000a0 0f 03 ac bd f7 e5 31 3e 00 c0 b8 bc d0 a9 fc bd
       -0.08399021 0.17372881 -0.02255249 -0.12337077
0000b0 6c d7 9b bd fe 41 43 3e a7 a6 40 be e0 2c ad bd
       -0.07609448 0.19068143 -0.18813573 -0.08455825
0000c0 ce d4 80 be c5 88 32 3e 4c 22 a7 be 12 c1 9d bd
       -0.25162357 0.17434986 -0.32643354 -0.07702841
0000d0 d4 a0 99 bd 40 42 aa 3d 8e 3c 98 3e 84 1e c3 bd
       -0.07501379 0.083134174 0.297337 -0.09527305
0000e0 d1 ee d5 be 9f 5e 99 be 2e 42 04 3e 80 9b 50 3e
       -0.41783765 -0.29955003 0.1291587 0.20371819
0000f0 fe d2 e6 bd c8 32 f2 be 5d 19 ad 3e 49 16 8a be
       -0.11270712 -0.47304368 0.33808413 -0.26970127

network.2.weight f4 [64, 64]
000000 08 bd 2f 3d 59 8c 09 40 e4 0e 84 3e d4 55 fb bd
       0.042904884 2.1491911 0.2579261 -0.1227223
000010 2e 1f a3 bc b5 3f fe 3e 20 6c 82 bb 6e 47 3b 3e
       -0.019912329 0.4965798 -0.0039801747 0.18288967
000020 40 15 37 bc de ef 8a be 44 93 63 3e b4 4b 00 40
       -0.0111745 -0.2713613 0.22224146 2.0046206
000030 e8 47 44 3e f5 6e 15 3e 32 34 41 3c 84 06 aa bd
       0.19168055 0.14593108 0.0117922295 -0.08302024
000040 ca bd ac 3d 3b 6b 55 3d f0 f6 e6 3d 48 7b 58 bd
       0.08434637 0.052104216 0.11277568 -0.052851945
000050 fc dc e5 3f 6c 85 db bd d0 62 26 3e 49 a1 b2 3f
       1.7958064 -0.107188076 0.16248631 1.395547
000060 9c 49 71 3d 30 52 73 3d 75 6d 44 3e 50 b4 46 3c
       0.05890809 0.059404552 0.1918238 0.012127951
000070 36 6e 9c 3d 12 83 39 40 d9 eb 08 40 b0 d3 c3 3c
       0.076382086 2.898625 2.139395 0.023904651
000080 85 f2 1f 40 98 c8 13 3f ab f3 1a 40 36 bc 99 3d
       2.4991772 0.57727957 2.4211223 0.075066015
000090 ba 40 e3 bd 1a 63 8d bf 44 18 b8 3d 4a 68 3f 3e
       -0.1109633 -1.1045868 0.08989003 0.18692127
0000a0 50 b9 0e 3e 0d 3c 18 3e 5b e3 7b bf f8 6c e7 bd
       0.13937879 0.14866658 -0.9839379 -0.11300081
0000b0 f2 93 c8 3d 50 c5 9b 3e fa 84 2d 40 c8 7f d8 3c
       0.09793843 0.30423975 2.7112412 0.026428118
0000c0 90 f8 10 bc de 56 80 3e d2 4a ac 3d 1c 5a 00 3e
       -0.008848324 0.25066274 0.08412708 0.12534374
0000d0 94 f3 bf bd 02 2c cf 3d f6 8a 19 3e 40 36 37 bd
       -0.09372631 0.10115816 0.14994416 -0.04472947
0000e0 c4 41 a0 bd 9a 53 db 3f 82 2d 18 3c 7d ed ff 3e
       -0.07825044 1.7134888 0.009288194 0.49985877
0000f0 74 d7 0c 3e 39 0d 5f 3f 27 d1 54 3e 30 aa 04 3d
       0.13754064 0.8712955 0.2078291 0.032388866
000100 a0 77 84 3c 9d e0 85 bd 3a 3a 80 bc a0 0b 9c 3c
       0.016170323 -0.06536982 -0.015652765 0.019048512
000110 a7 4d 8b 3b cd 53 60 3c b0 97 35 3c 4d 50 e9 bc
       0.0042512002 0.013691855 0.011083528 -0.028480673
000120 dc 5f 57 3d 56 7d 0d be c0 b4 13 bc 46 6a 01 bd
       0.052581653 -0.13817343 -0.009015262 -0.03159549
000130 13 cc 7f bd bc d6 dc 3d ef 65 1d 3d 78 af 66 bd
       -0.06245048 0.10783145 0.03842729 -0.056319684
000140 8d 81 c0 3d f8 46 58 3d e0 7a d0 3d fe e1 ad 3d
       0.0939971 0.052802056 0.101796865 0.0849037
000150 a1 15 f3 bd f8 d6 df 3c 34 86 50 3d 75 87 0e be
       -0.1186936 0.027324185 0.050909236 -0.1391886
000160 c0 a1 fa 3c 20 2e 68 3c c8 b4 94 bc 30 f5 86 3d
       0.030594707 0.014171153 -0.01815261 0.065897346
000170 de 1e 89 3d a8 23 a8 bd 36 a5 72 3d f9 45 00 be
       0.066953406 -0.08209926 0.05923959 -0.12526692
000180 fe a9 11 3d 27 c2 ff ba 27 22 54 bc 58 95 a9 bd
       0.035562508 -0.0019512818 -0.012947596 -0.08280438
000190 60 e0 a6 bd 68 5f 5e 3d dc 5d 2e bd 78 f4 e3 bd
       -0.08148265 0.054290205 -0.04256998 -0.11130613
0001a0 c0 96 d5 3d fb 25 38 3a e7 b8 ac 3d b0 26 d1 bd
       0.10429144 0.00070247025 0.08433705 -0.10212457
0001b0 e0 2f 01 3d 00 a7 04 be 46 70 58 3d 44 ad cd bd
       0.031539798 -0.1295433 0.052841447 -0.100428134
0001c0 64 5b be bd 82 56 33 bd cc fb 29 bd fe bd ef bd
       -0.09294775 -0.043783672 -0.041499898 -0.1170616
0001d0 70 bc 5d bc 0a e5 f6 3d 87 e2 c9 bd f6 19 b5 3d
       -0.0135336965 0.120554045 -0.0985766 0.08842842
0001e0 6c 84 a7 bd 22 c7 0e be 96 17 36 3d 0f a5 62 3d
       -0.08179554 -0.1394315 0.044456087 0.055333193
0001f0 2a fc f9 bd 62 a1 e7 bd 0b 30 bd 3d 92 2e 89 bd
       -0.122062996 -0.11310078 0.09237679 -0.06698336
000200 2c 2e d5 3d 39 91 75 3c bf d8 95 3d 1a 40 ef bd
       0.10409197 0.014988237 0.07316732 -0.11682148
000210 f6 8a d7 bc 7f 6a 02 bd c8 a1 cd 3c 77 16 56 bd
       -0.026311379 -0.031839844 0.025101557 -0.052267518
000220 b8 23 c4 3c 24 18 65 3d f6 b5 6c bc 05 04 e5 3c
       0.023942813 0.055931225 -0.01444768 0.027956018
000230 15 ae 32 3d 69 51 26 bd 95 2d dc 3d da dc 8c bd
       0.04362305 -0.040604983 0.107508816 -0.068780616
000240 eb df 79 bc 26 ea 3b 39 a0 ed c7 3c 12 2a e6 bd
       -0.01525114 0.00017920937 0.0244053 -0.11238493
000250 bb 26 08 be 66 32 9e 3d 1d 93 b1 3c 90 17 9a bd
       -0.13296025 0.077244565 0.021676594 -0.075240254
000260 2c fc 1f 3d b0 92 3d bc cf 05 9d bd 3e ab aa bd
       0.03905885 -0.011570618 -0.076671235 -0.08333443
000270 48 f1 39 bd 7e 07 8a bd f5 72 97 bd ae 99 6d bc
       -0.04539612 -0.0673971 -0.07394973 -0.014501972
000280 c6 4d 95 bd e8 31 87 3d 9a 7f c0 3c 78 64 bf 3c
       -0.07290225 0.06601316 0.023498345 0.023363337
000290 58 e1 35 bd db 43 db 3d b0 3c 91 3d 38 6a 89 bc
       -0.044404358 0.10706302 0.07091653 -0.016774282
0002a0 cd ba 52 bd 21 a2 b8 bc f8 b5 19 3d 48 59 b8 3c
       -0.05144768 -0.022538247 0.037527055 0.02250351
0002b0 90 21 ba bc 8e 20 26 bc 7d db 21 3c b8 46 4f 3d
       -0.022721082 -0.010139598 0.00987899 0.050604552
0002c0 c0 65 27 bd 4b ff 89 bd 39 f9 8c bd 26 df c7 bd
       -0.04086852 -0.067381464 -0.06883473 -0.09759359
0002d0 e4 25 81 bd 54 05 25 bd 6e 35 4b bc 1c 0d 26 3d
       -0.06306055 -0.040288284 -0.012402875 0.040539846
0002e0 fc d9 0a bd 45 37 b8 3d 03 cb 92 3d 21 08 53 3d
       -0.033899292 0.08994917 0.07167628 0.051521424
0002f0 f3 57 b0 3d 4d 68 a0 3c ea 68 bc bc 9e 78 ae 3d
       0.08610525 0.019580984 -0.022999246 0.085191
000300 b4 1b 2c 3d 09 23 fe bf dd 7f eb 3d c6 df 8a 3d
       0.042018607 -1.9854442 0.11498997 0.06780963
000310 e5 cc 7d 3a 9c 9a c3 bf d4 84 ca 3d 8b 38 f8 bd
       0.0009681716 -1.5281558 0.09888616 -0.1212016
000320 14 7e 88 3d 0e f6 4f 3e 2e 2e 7c bd ec 8f 02 c0
       0.066646725 0.20308706 -0.061567478 -2.0400343
000330 b7 a8 d1 3e 27 aa 91 be f6 53 12 be 82 11 9e 3d
       0.40949032 -0.28450128 -0.14289841 0.07718183
000340 3a c1 4a bd 57 ba 15 be c4 5b 70 3d e8 6f 3d 3d
       -0.04950068 -0.14621864 0.058681265 0.0462493
000350 53 98 fb bf f0 d3 41 bd 6f 3d a1 3e f6 4c bb bf
       -1.9655861 -0.04732126 0.31492183 -1.4632862
000360 ac 1d 3a 3d 98 74 48 3d 26 ab 8f 3e 62 a9 d5 3d
       0.045438454 0.048939317 0.28060263 0.10432698
000370 00 0b cc 3b e2 86 41 c0 91 e3 00 c0 d4 b1 90 3e
       0.0062268972 -3.0238576 -2.0138896 0.28260672
000380 b1 66 40 c0 4a 43 48 bf c3 a3 29 c0 bc aa af 3d
       -3.0062678 -0.78227675 -2.6506202 0.08577487
000390 80 7b 3d 3d cb 97 f7 3f 70 95 a6 bd 18 7c 38 3e
       0.046260357 1.9343199 -0.08133972 0.18016088
0003a0 c4 b4 cd 3d 8d f2 19 3d 1b c7 3a 3f d0 d0 e8 3c
       0.10044244 0.03758483 0.7296006 0.028419882
0003b0 72 ec 89 3d fd 43 a6 3e 68 a0 38 c0 40 43 f5 3b
       0.067345515 0.32473746 -2.8847904 0.0074848235
0003c0 14 5e bd bd 7d 10 ee 3d b2 2e 38 be 23 ed a2 3c
       -0.092464596 0.11624239 -0.17986563 0.019888466
0003d0 80 86 ae bc d2 bc f5 bd b8 96 12 3e 02 3b c1 3d
       -0.021304369 -0.11998905 0.14315307 0.09435083
0003e0 60 ce 92 bd a6 fc 16 c0 d8 58 81 ba de e0 d7 3e
       -0.07168269 -2.3591704 -0.0009868396 0.42163748
0003f0 27 64 29 3e 8f a8 b2 bf d9 e9 13 3e 44 9e dd bd
       0.16542111 -1.395769 0.14444675 -0.108212024

network.2.bias f4 [64]
000000 cc 44 02 3e 21 ea cf 3d a4 54 b9 bd 26 5b da 3e
       0.12721556 0.101520784 -0.09049347 0.42647666
000010 e0 37 eb 3c 16 60 e0 bd 28 f8 cb bd c9 0f fa 3e
       0.028713167 -0.10955827 -0.099594414 0.48840168
000020 68 a4 51 bd 87 05 5b 3d 45 a1 1a 3e ca b5 9f bc
       -0.05118218 0.05347207 0.15100582 -0.019495863
000030 71 8e 0d 3e 88 37 3b 3c 6d cd 82 bd 2d 18 16 bd
       0.13823868 0.011426814 -0.06386838 -0.03664415
000040 ee c8 c8 bd 6c 8c b6 bd 32 2d 0f 3e 0b 70 d1 bd
       -0.09803949 -0.08913502 0.13982084 -0.102264486
000050 ac 23 9e bd d1 1d 96 bd b2 de a0 3d 2b c2 0b 3e
       -0.077216476 -0.07329906 0.07854976 0.13648288
000060 20 f0 f8 bd be d0 e9 3e 5e 59 41 bd 0a 96 90 3d
       -0.12155175 0.4566707 -0.047204368 0.07059868
000070 65 86 37 bd 28 3b 4a 3c 94 0f 31 3e c0 57 4e bb
       -0.044805903 0.0123432055 0.17291099 -0.0031485409
000080 f5 85 33 3e 75 e3 82 3d 0c 19 8b 3d 6b ba ad 3d
       0.1753157 0.0639104 0.06791887 0.08482822
000090 1e c7 94 3d 55 15 1f 3d d4 81 0a bd 94 35 6e bd
       0.07264541 0.038838703 -0.03381522 -0.058156565
0000a0 54 b3 19 bd 6f 4d c5 3d 14 3e e3 3d 94 b0 92 3d
       -0.037524536 0.0963391 0.11095825 0.07162586
0000b0 44 7a 7a bd e3 d1 75 bd 01 e9 07 be ce f1 5e bd
       -0.061151758 -0.060014617 -0.13272478 -0.05442982
0000c0 f0 56 63 3c 3e 76 5a 3d b6 e5 43 3d 5c 4b ee bd
       0.013875708 0.05333542 0.04782649 -0.116354674
0000d0 e2 8d 93 bd 80 40 55 bd ac c5 43 3d 26 ab 8b 3d
       -0.072047964 -0.052063465 0.047795936 0.06819753
0000e0 c3 e3 d8 bd c3 d2 c4 3d 10 c1 4c 3e 7b 2b 04 3e
       -0.10590317 0.09610512 0.19995522 0.12907211
0000f0 64 3f cd 3d 60 01 29 3e a1 44 50 3d 9f 71 9a 3d
       0.100218564 0.16504431 0.0508467 0.07541203

network.4.weight f4 [4, 64]
000000 e3 4f 3a 3f 84 22 0d 3e 15 75 d7 bd ba 9d 93 bf
       0.7277815 0.13782698 -0.105203785 -1.1532509
000010 c0 08 53 3b 66 ac c9 3c 80 73 d4 3a 6e 6b d7 3f
       0.003220126 0.024618339 0.0016208738 1.682966
000020 6f 78 cc 3e ab 40 6a 3e 48 33 9a 3e 74 da a1 3d
       0.39935634 0.22876231 0.3011725 0.07902995
000030 7b bd ca 3e 49 b5 a6 bd 89 4f e1 3e a7 5d 70 3e
       0.39597687 -0.08140046 0.44005993 0.23473226
000040 e8 d3 23 bd f0 0c 0e 3c 79 06 cc 3e c6 bc a8 bd
       -0.03999701 0.008670077 0.39848688 -0.08239131
000050 8c 32 dc 3d 03 04 eb 3d 9e a8 37 ba 13 08 93 3e
       0.107518286 0.114753745 -0.0007006022 0.28717098
000060 ba 33 f6 bd 0e 53 cf bf 2a 97 e5 3c e7 b5 e9 bb
       -0.12021585 -1.6197221 0.028026182 -0.00713228
000070 13 40 ff 3c d8 98 47 bd 15 b1 01 3f ce 09 f4 bd
       0.031158483 -0.048729748 0.5066083 -0.119159326
000080 fe fb 04 3f b9 5a a5 bd c0 50 f3 3d c0 61 73 3b
       0.5194701 -0.080739446 0.11880636 0.003713712
000090 5a 98 13 3f 74 6b e9 bd 28 51 e0 bc 18 e0 92 3d
       0.57654345 -0.11397448 -0.027382448 0.07171649
0000a0 30 6e 8a bc 5e f6 ff 3e fc ab ac bd 9e 27 0c 3f
       -0.016898245 0.4999265 -0.08431241 0.5474795
0000b0 02 bd b2 3d 60 da d1 3c 8c a3 77 bd b5 6f b8 bd
       0.08727457 0.025616825 -0.060458705 -0.090056814
0000c0 c8 86 f3 3c 55 82 23 3f 50 b0 3d bc f0 1a 69 bc
       0.029727355 0.63870746 -0.011577681 -0.014227614
0000d0 80 a0 83 ba 7d 4e b5 bd 60 71 bb 3b d4 03 0c bd
       -0.001004234 -0.08852861 0.0057203025 -0.03418334
0000e0 87 ed 08 3f 65 f6 44 3e 7b 45 12 3f 12 58 fa 3e
       0.5348744 0.19234617 0.5713727 0.48895317
0000f0 d7 7b 16 be 27 31 23 3f 3c 30 81 3d 7e cf d8 bd
       -0.14695679 0.63746876 0.06308028 -0.10586451
000100 9f 8b e0 3e 50 4d 3e bd e7 3f 14 bc 65 b9 a2 bf
       0.43856522 -0.04646045 -0.009048439 -1.2712828
000110 02 df e3 3d ef dd ab bd 60 9f cb bd 08 52 44 3f
       0.1112652 -0.0839194 -0.09942508 0.7668767
000120 12 da e2 3e eb ec da 3e 48 c6 00 3f 7d f8 84 3b
       0.44307 0.4275888 0.50302553 0.0040579424
000130 8e fb 95 3e 1c 7c f4 3c 04 4c 0a 3f ea 1a b4 3e
       0.29293483 0.029844336 0.5402224 0.35176784
000140 90 74 e6 3c a4 aa cd bd 49 5b c6 3e a0 46 97 bc
       0.028131753 -0.10042313 0.3874152 -0.018466294
000150 fa 68 98 3d 07 79 f7 bd f4 2a 8c 3d 25 2d e9 3e
       0.07441898 -0.12083631 0.0684413 0.45542255
000160 80 b1 91 3b 97 4f b3 bf ec bc 00 be 44 67 77 bd
       0.0044462085 -1.4008664 -0.12572068 -0.060401216
000170 38 ae f7 3d 34 2c 3f bd e9 2a f2 3e 68 a3 12 3d
       0.120937765 -0.046673015 0.47298363 0.035800368
000180 14 41 d8 3e 7d 8d 40 bd 74 69 05 bd 48 3f 2b 3d
       0.4223715 -0.047009934 -0.03257127 0.041808397
000190 de 62 06 3f 29 1c ec bd 08 2c 24 3d 02 00 de bd
       0.5249461 -0.115288086 0.040081054 -0.10839845
0001a0 48 7c 92 bc 0d 4d 99 3e dc a1 28 3d 45 d3 f3 3e
       -0.017881528 0.29941598 0.041169986 0.47622123
0001b0 60 8b ec bc 8b c3 04 be d9 5e e8 3b 4f 25 19 bd
       -0.028875053 -0.12965219 0.007091385 -0.037389096
0001c0 20 a6 57 3c 9a ff 07 3f 48 eb cf 3c 28 5d 39 3d
       0.013162166 0.5312439 0.025380746 0.045254856
0001d0 ac 45 a6 3d 04 01 54 3c 90 c8 5a 3c 4e a0 e3 bd
       0.081187576 0.012939695 0.013353482 -0.1111456
0001e0 c1 73 25 3f 74 91 db 3e 61 72 04 3f e8 42 bc 3e
       0.6462975 0.4288441 0.5173703 0.36769795
0001f0 70 c1 32 bd 28 6c 17 3f fd f3 fb 3c fb dd 85 3d
       -0.043641508 0.5914941 0.030755991 0.0653648
000200 7d 6c e1 3e c8 37 96 bd 80 7d af 3d 3f 0e b9 bf
       0.44028082 -0.07334858 0.08568859 -1.4457473
000210 e0 74 61 3c 52 10 a3 3c b0 2b b7 3d 93 46 8f 3d
       0.013760775 0.019905243 0.089438796 0.06995883
000220 03 8d 08 3f 51 fa 12 3f 8b 64 d6 3e c2 0a c3 3d
       0.53340167 0.574132 0.41873583 0.09523536
000230 6d 5a eb 3e f9 1b db 3c 56 ab 01 3f b9 a2 04 3f
       0.45967427 0.026746737 0.5065206 0.51810795
000240 2c 40 93 3d c4 69 87 bd 71 21 04 3f a6 c6 a9 3d
       0.07189974 -0.0661197 0.5161353 0.08289842
000250 b4 6c 25 3d 3a 60 d0 bd a3 5a cb bd 76 c3 dd 3e
       0.04038687 -0.10174604 -0.09929397 0.43313187
000260 7c 88 20 bd 67 e5 a2 bf b7 bb a2 bd d6 da dd 3d
       -0.03919266 -1.2726258 -0.0794596 0.10832755
000270 1c e6 9d bd 2c 7d b8 3c f4 63 0e 3f ea a7 93 bd
       -0.077099055 0.022520624 0.55621266 -0.072097614
000280 88 24 d7 3e 48 73 11 3d 8c 95 d6 bd 72 83 99 3d
       0.4202006 0.03551033 -0.104777426 0.07495774
000290 09 7a ee 3e 4f a8 4a bd c4 59 97 3d 66 6a ab bd
       0.4657748 -0.049476918 0.07390168 -0.08369903
0002a0 48 5e c9 3d a2 62 ca 3e b6 a2 c0 3d 3a ec ca 3e
       0.09832436 0.39528376 0.09406035 0.39633352
0002b0 7c 2e 1e 3d ea f0 14 bb 6b 40 e9 bc dd 4c 18 3d
       0.03861855 -0.0022726604 -0.0284731 0.037182678
0002c0 c4 4e d5 3d 12 49 dc 3e 48 a5 e5 3c bc 68 d3 bd
       0.10415414 0.43024498 0.028032914 -0.10322711
0002d0 00 d1 3b 3c 10 15 bf 3c 40 d6 7a bd e8 9a e9 3c
       0.011463404 0.023325473 -0.06123948 0.028516248
0002e0 50 64 fb 3e 4c f9 08 3f 86 6b b3 3e 51 f4 02 3f
       0.4909997 0.53505397 0.3504297 0.5115405
0002f0 64 51 9f 3d 63 d1 cb 3e 4c c3 d4 3c f3 b6 45 bd
       0.07779196 0.39808187 0.025972031 -0.048270177
000300 79 76 b1 3e 5e 88 ac bd e5 17 d2 bd ff 44 80 bf
       0.346607 -0.084244475 -0.10258464 -1.0021056
000310 f4 fc 15 bd 8c 35 f8 bb ef 97 c0 bd 49 99 7a 3f
       -0.036618188 -0.0075747427 -0.09403979 0.97890145
000320 6f ef df 3e 7f d7 e5 3e 10 d1 d9 3e 75 6e e4 bc
       0.4373736 0.44890973 0.42542315 -0.027884701
000330 be 97 f2 3e 76 49 45 3d ff 23 ad 3e 79 2c d8 3e
       0.47381395 0.04816576 0.33816525 0.4222143
000340 bc c2 99 bd 20 f4 ea 3c 33 9f d9 3e f8 10 82 bc
       -0.07507846 0.028680861 0.42504272 -0.015877232
000350 9d 68 64 3d 51 4d 8d bd bb 85 0f bd 4a d0 e6 3e
       0.05576383 -0.068995126 -0.035039645 0.45080787
000360 7c ce 57 bd 6a 1f 8c bf 96 c1 02 bd 90 1e 1c bc
       -0.052687153 -1.0947087 -0.0319229 -0.009528771
000370 0e 39 b0 3d 1d ea 75 3c ec 44 fe 3e e4 ee 3b 3d
       0.08604632 0.01500943 0.49661958 0.04588212
000380 87 c5 ce 3e 1d b4 68 bd a8 b4 29 bd 49 83 8b 3c
       0.40385076 -0.056812394 -0.041432053 0.017030375
000390 d0 99 ce 3e c1 80 ab bc 4c 35 40 3d b6 4a 90 3d
       0.40351725 -0.020935418 0.046925828 0.070455
0003a0 00 ce d7 3d 5a ca ec 3e 90 47 ed bd 26 f2 e8 3e
       0.10537338 0.46248132 -0.11585915 0.45497245
0003b0 56 31 86 bd 86 ad 47 bc 03 c7 6e bc 65 e7 9b bd
       -0.06552379 -0.012187367 -0.014573815 -0.076124944
0003c0 4c bc 70 3d df 92 ef 3e ff f4 a0 3c 82 79 aa 3d
       0.058773324 0.4679174 0.019648073 0.08323957
0003d0 2d 66 b3 3d a1 93 b3 3b 30 3f c3 bc 6a 33 e6 bd
       0.08759723 0.005480245 -0.023833841 -0.11240275
0003e0 c6 a9 f6 3e 78 1c e9 3e a0 91 cf 3e 0e e7 e7 3e
       0.48176402 0.45529532 0.4054079 0.45293468
0003f0 a4 b0 f0 bd 8c 0a b2 3e 2e c0 a5 bc 4c 6e 46 bd
       -0.117524415 0.34773672 -0.02023324 -0.04844503

network.4.bias f4 [4]
000000 a2 74 be 3e 30 50 ae 3c 0b 8e fc bd cf 53 0b 3d
       0.3719836 0.02127847 -0.1233178 0.034015473

network.0.weight f4 [64, 5]
000000 90 7b 8d 3d e8 2d e8 3d 9b 59 a9 be 44 ee 82 3e
       0.06908333 0.11336881 -0.33076176 0.25572407
000010 14 f9 8a 3e b4 3e bb c0 a6 4e f4 3b 27 2c c6 be
       0.27143157 -5.851404 0.0074556647 -0.3870556
000020 b9 b5 d9 3c 58 37 c6 3e a5 4c da bf 5e 33 1d 3f
       0.02657591 0.387141 -1.705464 0.61406505
000030 38 a4 6b 3e 45 bc bd 3e d1 ba 0b 3f 64 04 f2 bd
       0.23011863 0.370577 0.54581934 -0.11817244
000040 0a ef c8 be 78 e1 d2 bd 48 1d 94 be c4 ce 3f be
       -0.39244872 -0.10296911 -0.2892859 -0.18731219
000050 eb b0 2d be bf 9c e6 3d 83 8c 9e 3d 61 8b 06 be
       -0.1696202 0.11260366 0.07741644 -0.13139106
000060 59 18 23 3e 5b 2e 8f c0 e7 83 28 3f cb 0d 08 bf
       0.15927257 -4.4744086 0.65826267 -0.53146046
000070 31 44 eb be e1 d8 cd 3e 34 45 1d be fb a5 cb be
       -0.45950463 0.40204528 -0.1535843 -0.3977507
000080 92 ff cc be 28 a2 0a 3d 72 99 3d be aa 81 c6 bf
       -0.40038735 0.03384605 -0.18515566 -1.550832
000090 5d 43 12 3f be 3e ff bd b1 a9 2c bd 01 01 df 3e
       0.5713404 -0.12463139 -0.042154018 0.43555453
0000a0 c4 cb 63 3e fc 28 cc bd a8 09 dd 3d ce c9 d7 3e
       0.22245699 -0.09968755 0.107928574 0.42146152
0000b0 bc 55 b2 be b9 be 0b 40 44 da 7c bd bb a1 12 bd
       -0.34831035 2.1835158 -0.06173159 -0.03579877
0000c0 51 e4 d5 bc 32 66 02 3e 95 4f eb bf cf 98 22 3f
       -0.026109846 0.12734297 -1.8383662 0.6351442
0000d0 33 9f c9 bc 02 ab 19 be 25 36 bc 3e 3c 11 ba c0
       -0.024612045 -0.1500664 0.3676006 -5.814604
0000e0 8e a6 d1 3d 2d 13 7c bd 49 18 38 be b3 42 10 3e
       0.10236846 -0.061541725 -0.17978014 0.14087944
0000f0 52 c3 40 c0 62 c2 63 be 4e 81 f0 3d f9 34 1e be
       -3.0119214 -0.2224212 0.11743413 -0.15449895
000100 e4 0b d5 3e 7b 87 b2 bf 44 c2 27 3f 28 af 45 be
       0.41610634 -1.3947595 0.655308 -0.19305098
000110 91 3f 5b 3c 27 88 f5 3e 81 26 eb bf c7 37 fa 3e
       0.013381855 0.47955438 -1.8371125 0.4887068
000120 36 5a d2 be a4 f3 71 3d 14 c2 03 3f f3 ea 53 be
       -0.4108445 0.059070244 0.51468015 -0.20695095
000130 d0 cb 1d be 9c fd c8 3e 7f 38 ac be e5 25 af be
       -0.1540978 0.3925599 -0.33636853 -0.342086
000140 0b b7 c2 bf ca 73 34 3f a9 50 ff 3d 91 85 69 3c
       -1.521211 0.7048918 0.124665566 0.014253036
000150 93 d0 f2 bd f0 a6 f6 bf 0f f0 41 3f dc 22 b2 be
       -0.118561886 -1.9269695 0.75756925 -0.3479222
000160 a3 03 da be 97 69 9e 3e b0 e0 68 be a3 65 d9 be
       -0.425809 0.30939934 -0.22741961 -0.42460355
000170 6e 09 c8 be c6 84 8f 3e ea 7d ae 3e 90 b8 b9 be
       -0.39069694 0.28030986 0.3408044 -0.36273623
000180 c9 9a 8e be 00 42 5b be 5c 5c 81 3e 00 be 69 3e
       -0.27852467 -0.21411896 0.25265777 0.22826385
000190 ea 86 b3 c0 4d 74 2c 3c f8 64 ab be 46 07 ac be
       -5.610219 0.010525775 -0.3347547 -0.335993
0001a0 e5 15 cf 3e 4a 16 16 be f8 1b d9 3d 20 a0 36 be
       0.40446392 -0.1465694 0.10601038 -0.1783452
0001b0 cc 94 a4 3e f0 a0 bf 3e 1f 1a 11 c0 b9 38 e5 3d
       0.32144773 0.37427473 -2.2672193 0.111924596
0001c0 43 ff f9 3d 6a fd 31 3e 11 c5 43 3e 98 fa dc c0
       0.122068904 0.17381826 0.19118144 -6.90559
0001d0 59 c6 68 3e ab 1a 93 be d6 e2 3f 3e d2 5a e6 3e
       0.22731914 -0.28731284 0.18738875 0.44991165
0001e0 a6 5e 79 be 86 b1 cf 3e 4c 82 e4 be dc d4 83 be
       -0.24352512 0.40565127 -0.4463066 -0.25748336
0001f0 f9 24 b7 be c0 42 14 3d 94 22 e1 3e b9 0b d9 be
       -0.35770395 0.03619647 0.43971694 -0.42391756
000200 f0 b2 89 bd 48 0a 54 bd e8 79 04 c0 1a 1c 17 bd
       -0.06723583 -0.051767617 -2.0699406 -0.036892034
000210 55 f7 de 3d 68 43 6b bd 04 85 b6 3e 18 1e 76 be
       0.108870186 -0.05743733 0.35648358 -0.24034917
000220 f0 0f 62 3d e0 e7 80 3e 2c 34 b1 be 9f 85 d7 be
       0.05519098 0.25176907 -0.34610116 -0.42094132
000230 b8 e1 2f 3e b8 9e bc bd 50 bb 37 be b0 bc b0 3d
       0.17175949 -0.09209961 -0.17942548 0.08629739
000240 80 94 2d be 8b 2a e0 c0 fa d1 0e 3e 1c 97 ee be
       -0.1695118 -7.005193 0.13947287 -0.46599662
000250 e5 b0 1a 3d 28 f8 43 3e 40 c1 b9 c0 4f db 01 3c
       0.037766356 0.19137633 -5.80484 0.007925822
000260 e3 f0 1b bc dd 0b e4 bd f9 03 cb 3e 64 b4 a4 bf
       -0.009517881 -0.11135075 0.39651468 -1.2867551
000270 88 69 90 3e a3 f7 ad 3e cd d3 d1 be 1d 9b e0 3e
       0.28205514 0.33977994 -0.40981904 0.43868342
000280 d5 47 08 c1 d6 02 b4 3e 35 15 66 be bc 10 88 be
       -8.517537 0.35158414 -0.22469027 -0.26575267
000290 17 27 05 3f 1c 23 45 c0 3d 5a 49 3e f7 5e 11 be
       0.5201277 -3.080268 0.1966333 -0.14196382
0002a0 5c bb ff be 3f 73 4e 3e c2 22 e1 c0 77 4c a1 3d
       -0.4994763 0.2016115 -7.035493 0.07875913
0002b0 db 25 b3 be 1d e4 86 be 29 d6 ea 3e 37 ff 6a be
       -0.3498982 -0.26345912 0.45866516 -0.22948919
0002c0 20 03 ae 3e 16 c1 83 be 62 a9 c2 be a0 2d 88 3e
       0.3398676 -0.2573325 -0.38019854 0.2659731
0002d0 28 81 23 3e 71 dd 9d be 60 20 d3 be 5e 3c 2e be
       0.15967238 -0.3083301 -0.41235638 -0.17015216
0002e0 d4 8e 08 3e 89 33 91 c0 6e b1 3e bf d9 16 9b 3e
       0.13335735 -4.537541 -0.74489486 0.3029087
0002f0 54 ca 8f bd 35 2b 33 3e 50 b6 3a be 38 60 e0 3e
       -0.07021013 0.17496951 -0.18233609 0.4382341
000300 f9 38 4b be 9c d9 a2 bd 70 b1 69 3d d9 65 bd bf
       -0.19845952 -0.07951662 0.057053983 -1.4796706
000310 80 c3 bf 3e 4b 4d 78 3e 69 16 52 be 54 c5 b7 3c
       0.37453842 0.24248235 -0.20516361 0.02243296
000320 c9 41 eb bf b0 42 43 3e ed 49 0d 3e 20 b9 6d be
       -1.8379451 0.19068408 0.13797732 -0.23215151
000330 ec d8 75 be ee c1 d1 bf 95 6a 35 3f 95 cf 37 bc
       -0.2400853 -1.6387308 0.70865756 -0.011218925
000340 8a 00 4f 3c df be 2d 3e 63 c4 9e 3e e4 d9 3c 3f
       0.012634406 0.16967343 0.31009206 0.73769975
000350 18 aa a1 be ae a8 17 bf 27 5e cc be d4 ff 81 3e
       -0.31575084 -0.5924176 -0.39915583 0.25390494
000360 17 1a 54 be 82 9f e4 3e b0 29 9f 3e 53 ed c0 be
       -0.20713077 0.44652945 0.31086493 -0.37681064
000370 d4 d6 e1 3e 00 ce ea bb 60 6d ab be f0 b8 dc bd
       0.44109213 -0.0071656704 -0.33481884 -0.107774615
000380 a4 4a 1e be ed ea 72 c0 22 f6 99 bd 58 f2 94 be
       -0.1545816 -3.7955887 -0.07517649 -0.29091144
000390 31 19 b5 be 32 67 41 3e 49 86 d3 c0 15 c8 e4 3b
       -0.35370782 0.18887022 -6.610142 0.0069818594
0003a0 dc c4 83 be 00 82 f4 3b 11 68 f3 3e 44 da 34 be
       -0.2573613 0.0074617863 0.47540334 -0.17661387
0003b0 d0 d2 5b 3d 1c 02 3b 3e 70 22 a4 be 9a 49 c0 be
       0.053667843 0.18262523 -0.32057524 -0.37556154
0003c0 cc e0 fd bd a4 db 00 3e 46 0a b9 3e ea 09 68 be
       -0.12396392 0.12583786 0.3614065 -0.22660032
0003d0 c3 dc e0 be 89 61 f9 bf 64 45 b1 3e b5 68 a8 3e
       -0.43918428 -1.948289 0.34623253 0.32892385
0003e0 4f ad ac be cf e2 23 3e d9 97 b7 bf b2 24 2d 3f
       -0.33725974 0.1600449 -1.4343215 0.6763412
0003f0 bb a4 1e bd fe c8 b4 3c 79 26 05 3f 92 82 56 be
       -0.038731318 0.022068497 0.5201183 -0.20948246

network.0.bias f4 [64]
000000 ec 37 2a be db ae c0 3c 1b 38 5f be 28 2a b4 3d
       -0.16622895 0.023520878 -0.21798746 0.08797103
000010 e1 38 bd be e3 93 d4 bd fe 7c 2c be a8 b7 61 bd
       -0.36957458 -0.1037977 -0.16844556 -0.05510679
000020 1c 31 92 be 83 a8 42 3e 31 ae 90 3e 87 18 15 be
       -0.28553092 0.19009595 0.28257897 -0.14560138
000030 17 20 a6 be 54 f3 8c bd 1b 5f cf bd c2 9d 41 be
       -0.32446358 -0.06882349 -0.10125562 -0.18907836
000040 b5 ed 00 be 1e 0f ac 3e 34 58 8f 3e 14 78 98 bd
       -0.12590678 0.33605283 0.2799698 -0.07444778
000050 70 a6 32 bd a1 69 bc be ec 67 86 3e 08 b4 b2 be
       -0.04361576 -0.36799338 0.2625116 -0.34902978
000060 a2 78 3f be 3e 67 ce be 08 33 60 be b8 ac a0 bd
       -0.18698362 -0.40313143 -0.21894467 -0.078454435
000070 aa c3 4b be cb c7 30 3e a8 1c b6 be 3c a5 71 3d
       -0.19898859 0.17263715 -0.35568738 0.05899547
000080 88 10 a7 be 84 1e 6b be 8e 24 12 be 16 d9 c2 be
       -0.326298 -0.2296086 -0.14271757 -0.38056248
000090 40 ee d1 3d 89 80 cc 3d a4 7d 97 be 97 07 47 3e
       0.10250521 0.09985454 -0.29588044 0.19436489
0000a0 0f 03 ac bd 9d 1d 32 3e 00 c0 b8 bc d0 a9 fc bd
       -0.08399021 0.17394109 -0.02255249 -0.12337077
0000b0 6c d7 9b bd fe 41 43 3e a7 a6 40 be e0 2c ad bd
       -0.07609448 0.19068143 -0.18813573 -0.08455825
0000c0 ce d4 80 be b7 cf 32 3e 33 32 a7 be 12 c1 9d bd
       -0.25162357 0.1746205 -0.32655486 -0.07702841
0000d0 d4 a0 99 bd 40 42 aa 3d 5d 65 98 3e 84 1e c3 bd
       -0.07501379 0.083134174 0.29764834 -0.09527305
0000e0 d1 ee d5 be 8e 69 9a be 47 9f 04 3e 35 25 52 3e
       -0.41783765 -0.30158657 0.12951384 0.20522006
0000f0 a4 5e e6 bd c8 32 f2 be 02 33 ad 3e 49 16 8a be
       -0.1124852 -0.47304368 0.33827978 -0.26970127

network.2.weight f4 [64, 64]
000000 08 bd 2f 3d 59 8c 09 40 db 66 84 3e d4 55 fb bd
       0.042904884 2.1491911 0.25859722 -0.1227223
000010 2e 1f a3 bc 48 0f fd 3e 20 6c 82 bb ec a7 3b 3e
       -0.019912329 0.4942572 -0.0039801747 0.18325776
000020 40 15 37 bc 55 25 8a be 5a 5f 64 3e b4 4b 00 40
       -0.0111745 -0.26981607 0.22301999 2.0046206
000030 e8 47 44 3e d1 b4 15 3e c0 e7 30 3c 84 06 aa bd
       0.19168055 0.14619757 0.010797441 -0.08302024
000040 28 81 ac 3d e7 58 57 3d f0 f6 e6 3d 48 7b 58 bd
       0.08423072 0.05257502 0.11277568 -0.052851945
000050 fc dc e5 3f 6c 85 db bd 93 77 27 3e 49 a1 b2 3f
       1.7958064 -0.107188076 0.16354208 1.395547
000060 9c 49 71 3d 30 52 73 3d a8 08 45 3e 50 b4 46 3c
       0.05890809 0.059404552 0.19241583 0.012127951
000070 36 6e 9c 3d 12 83 39 40 d9 eb 08 40 fb 0e cc 3c
       0.076382086 2.898625 2.139395 0.024909487
000080 3c ca 1f 40 98 c8 13 3f ab f3 1a 40 36 bc 99 3d
       2.4967184 0.57727957 2.4211223 0.075066015
000090 ba 40 e3 bd 49 d4 8c bf 44 18 b8 3d ff 5a 40 3e
       -0.1109633 -1.1002284 0.08989003 0.18784712
0000a0 50 b9 0e 3e e6 db 18 3e 5b e3 7b bf f8 6c e7 bd
       0.13937879 0.14927635 -0.9839379 -0.11300081
0000b0 f2 93 c8 3d 50 c5 9b 3e fa 84 2d 40 c8 7f d8 3c
       0.09793843 0.30423975 2.7112412 0.026428118
0000c0 90 f8 10 bc 3b d7 80 3e e8 75 ac 3d 1c 5a 00 3e
       -0.008848324 0.25164208 0.08420926 0.12534374
0000d0 94 f3 bf bd 02 2c cf 3d 27 70 1a 3e 40 36 37 bd
       -0.09372631 0.10115816 0.15081845 -0.04472947
0000e0 c4 41 a0 bd b7 fd da 3f 86 90 25 3c 7f 76 00 3f
       -0.07825044 1.7108678 0.010105258 0.5018081
0000f0 f7 90 0d 3e 39 0d 5f 3f e6 e3 55 3e 30 aa 04 3d
       0.13824831 0.8712955 0.20887718 0.032388866
000100 a0 77 84 3c 9d e0 85 bd 3a 3a 80 bc a0 0b 9c 3c
       0.016170323 -0.06536982 -0.015652765 0.019048512
000110 a7 4d 8b 3b cd 53 60 3c b0 97 35 3c 4d 50 e9 bc
       0.0042512002 0.013691855 0.011083528 -0.028480673
000120 dc 5f 57 3d 56 7d 0d be c0 b4 13 bc 46 6a 01 bd
       0.052581653 -0.13817343 -0.009015262 -0.03159549
000130 13 cc 7f bd bc d6 dc 3d ef 65 1d 3d 78 af 66 bd
       -0.06245048 0.10783145 0.03842729 -0.056319684
000140 8d 81 c0 3d f8 46 58 3d e0 7a d0 3d fe e1 ad 3d
       0.0939971 0.052802056 0.101796865 0.0849037
000150 a1 15 f3 bd f8 d6 df 3c 34 86 50 3d 75 87 0e be
       -0.1186936 0.027324185 0.050909236 -0.1391886
000160 c0 a1 fa 3c 20 2e 68 3c c8 b4 94 bc 30 f5 86 3d
       0.030594707 0.014171153 -0.01815261 0.065897346
000170 de 1e 89 3d a8 23 a8 bd 36 a5 72 3d f9 45 00 be
       0.066953406 -0.08209926 0.05923959 -0.12526692
000180 fe a9 11 3d 27 c2 ff ba 27 22 54 bc 58 95 a9 bd
       0.035562508 -0.0019512818 -0.012947596 -0.08280438
000190 60 e0 a6 bd 68 5f 5e 3d dc 5d 2e bd 78 f4 e3 bd
       -0.08148265 0.054290205 -0.04256998 -0.11130613
0001a0 c0 96 d5 3d fb 25 38 3a e7 b8 ac 3d b0 26 d1 bd
       0.10429144 0.00070247025 0.08433705 -0.10212457
0001b0 e0 2f 01 3d 00 a7 04 be 46 70 58 3d 44 ad cd bd
       0.031539798 -0.1295433 0.052841447 -0.100428134
0001c0 64 5b be bd 82 56 33 bd cc fb 29 bd fe bd ef bd
       -0.09294775 -0.043783672 -0.041499898 -0.1170616
0001d0 70 bc 5d bc 0a e5 f6 3d 87 e2 c9 bd f6 19 b5 3d
       -0.0135336965 0.120554045 -0.0985766 0.08842842
0001e0 6c 84 a7 bd 22 c7 0e be 96 17 36 3d 0f a5 62 3d
       -0.08179554 -0.1394315 0.044456087 0.055333193
0001f0 2a fc f9 bd 62 a1 e7 bd 0b 30 bd 3d 92 2e 89 bd
       -0.122062996 -0.11310078 0.09237679 -0.06698336
000200 2c 2e d5 3d 39 91 75 3c bf d8 95 3d 1a 40 ef bd
       0.10409197 0.014988237 0.07316732 -0.11682148
000210 f6 8a d7 bc 7f 6a 02 bd c8 a1 cd 3c 77 16 56 bd
       -0.026311379 -0.031839844 0.025101557 -0.052267518
000220 b8 23 c4 3c 24 18 65 3d f6 b5 6c bc 05 04 e5 3c
       0.023942813 0.055931225 -0.01444768 0.027956018
000230 15 ae 32 3d 69 51 26 bd 95 2d dc 3d da dc 8c bd
       0.04362305 -0.040604983 0.107508816 -0.068780616
000240 eb df 79 bc 26 ea 3b 39 a0 ed c7 3c 12 2a e6 bd
       -0.01525114 0.00017920937 0.0244053 -0.11238493
000250 bb 26 08 be 66 32 9e 3d 1d 93 b1 3c 90 17 9a bd
       -0.13296025 0.077244565 0.021676594 -0.075240254
000260 2c fc 1f 3d b0 92 3d bc cf 05 9d bd 3e ab aa bd
       0.03905885 -0.011570618 -0.076671235 -0.08333443
000270 48 f1 39 bd 7e 07 8a bd f5 72 97 bd ae 99 6d bc
       -0.04539612 -0.0673971 -0.07394973 -0.014501972
000280 c6 4d 95 bd e8 31 87 3d 9a 7f c0 3c 78 64 bf 3c
       -0.07290225 0.06601316 0.023498345 0.023363337
000290 58 e1 35 bd db 43 db 3d b0 3c 91 3d 38 6a 89 bc
       -0.044404358 0.10706302 0.07091653 -0.016774282
0002a0 cd ba 52 bd 21 a2 b8 bc f8 b5 19 3d 48 59 b8 3c
       -0.05144768 -0.022538247 0.037527055 0.02250351
0002b0 90 21 ba bc 8e 20 26 bc 7d db 21 3c b8 46 4f 3d
       -0.022721082 -0.010139598 0.00987899 0.050604552
0002c0 c0 65 27 bd 4b ff 89 bd 39 f9 8c bd 26 df c7 bd
       -0.04086852 -0.067381464 -0.06883473 -0.09759359
0002d0 e4 25 81 bd 54 05 25 bd 6e 35 4b bc 1c 0d 26 3d
       -0.06306055 -0.040288284 -0.012402875 0.040539846
0002e0 fc d9 0a bd 45 37 b8 3d 03 cb 92 3d 21 08 53 3d
       -0.033899292 0.08994917 0.07167628 0.051521424
0002f0 f3 57 b0 3d 4d 68 a0 3c ea 68 bc bc 9e 78 ae 3d
       0.08610525 0.019580984 -0.022999246 0.085191
000300 b4 1b 2c 3d 09 23 fe bf 64 59 eb 3d c6 df 8a 3d
       0.042018607 -1.9854442 0.11491659 0.06780963
000310 e5 cc 7d 3a ef 23 c3 bf d4 84 ca 3d 4b ca f7 bd
       0.0009681716 -1.5245341 0.09888616 -0.12099131
000320 14 7e 88 3d eb 19 4f 3e 9e e6 7c bd ec 8f 02 c0
       0.066646725 0.2022473 -0.06174337 -2.0400343
000330 b7 a8 d1 3e 18 81 91 be 11 97 10 be 82 11 9e 3d
       0.40949032 -0.28418803 -0.14120127 0.07718183
000340 98 f5 47 bd 93 9b 15 be c4 5b 70 3d e8 6f 3d 3d
       -0.0488182 -0.14610128 0.058681265 0.0462493
000350 53 98 fb bf f0 d3 41 bd aa 00 a1 3e f6 4c bb bf
       -1.9655861 -0.04732126 0.3144582 -1.4632862
000360 ac 1d 3a 3d 98 74 48 3d 25 9c 8f 3e 62 a9 d5 3d
       0.045438454 0.048939317 0.28048816 0.10432698
000370 00 0b cc 3b e2 86 41 c0 91 e3 00 c0 fd 7d 90 3e
       0.0062268972 -3.0238576 -2.0138896 0.2822112
000380 86 2d 40 c0 4a 43 48 bf c3 a3 29 c0 bc aa af 3d
       -3.0027785 -0.78227675 -2.6506202 0.08577487
000390 80 7b 3d 3d 24 11 f7 3f 70 95 a6 bd 76 26 38 3e
       0.046260357 1.9302106 -0.08133972 0.17983422
0003a0 c4 b4 cd 3d 7b e1 19 3d 1b c7 3a 3f d0 d0 e8 3c
       0.10044244 0.03756855 0.7296006 0.028419882
0003b0 72 ec 89 3d fd 43 a6 3e 68 a0 38 c0 40 43 f5 3b
       0.067345515 0.32473746 -2.8847904 0.0074848235
0003c0 14 5e bd bd 20 4b ed 3d ab ab 37 be 23 ed a2 3c
       -0.092464596 0.115865946 -0.1793658 0.019888466
0003d0 80 86 ae bc d2 bc f5 bd 42 50 12 3e 02 3b c1 3d
       -0.021304369 -0.11998905 0.14288428 0.09435083
0003e0 60 ce 92 bd 79 be 16 c0 be f5 9c ba f2 25 d7 3e
       -0.07168269 -2.3553755 -0.0011975092 0.42021137
0003f0 76 45 29 3e 8f a8 b2 bf 7e 77 13 3e 44 9e dd bd
       0.16530403 -1.395769 0.14401051 -0.108212024

network.2.bias f4 [64]
000000 b4 a8 03 3e 21 ea cf 3d a4 54 b9 bd c8 fd d9 3e
       0.12857324 0.101520784 -0.09049347 0.42576432
000010 e0 37 eb 3c 16 60 e0 bd 28 f8 cb bd 2a 14 fb 3e
       0.028713167 -0.10955827 -0.099594414 0.4903882
000020 a5 da 51 bd 69 c1 56 3d e4 62 1a 3e ca b5 9f bc
       -0.051233906 0.052430544 0.15076786 -0.019495863
000030 a9 99 0d 3e 88 37 3b 3c c2 0c 82 bd 35 b3 19 bd
       0.13828148 0.011426814 -0.063500896 -0.03752442
000040 ee c8 c8 bd 6c 8c b6 bd 4f 2d 0f 3e 0b 70 d1 bd
       -0.09803949 -0.08913502 0.13982128 -0.102264486
000050 ac 23 9e bd d1 1d 96 bd b2 de a0 3d 09 5c 0b 3e
       -0.077216476 -0.07329906 0.07854976 0.13609327
000060 20 f0 f8 bd 88 42 e9 3e 5e 59 41 bd 0a 96 90 3d
       -0.12155175 0.45558572 -0.047204368 0.07059868
000070 65 86 37 bd 28 3b 4a 3c 22 51 31 3e c0 57 4e bb
       -0.044805903 0.0123432055 0.17316106 -0.0031485409
000080 47 4c 34 3e 75 e3 82 3d 0c 19 8b 3d 6b ba ad 3d
       0.17607222 0.0639104 0.06791887 0.08482822
000090 01 7e 96 3d 55 15 1f 3d d4 81 0a bd 94 35 6e bd
       0.07348252 0.038838703 -0.03381522 -0.058156565
0000a0 54 b3 19 bd 83 98 c6 3d 14 3e e3 3d 62 58 94 3d
       -0.037524536 0.09697058 0.11095825 0.0724342
0000b0 44 7a 7a bd e3 d1 75 bd 01 e9 07 be ce f1 5e bd
       -0.061151758 -0.060014617 -0.13272478 -0.05442982
0000c0 f0 56 63 3c 29 74 5e 3d b6 e5 43 3d 5c 4b ee bd
       0.013875708 0.054309998 0.04782649 -0.116354674
0000d0 e2 8d 93 bd 80 40 55 bd ac c5 43 3d 26 ab 8b 3d
       -0.072047964 -0.052063465 0.047795936 0.06819753
0000e0 92 d3 d7 bd 56 6d c2 3d a9 dc 4d 3e b0 85 04 3e
       -0.10538401 0.094935104 0.20103706 0.12941623
0000f0 64 3f cd 3d 50 4b 2a 3e a1 44 50 3d 9f 71 9a 3d
       0.100218564 0.16630292 0.0508467 0.07541203

network.4.weight f4 [4, 64]
000000 98 bf 3a 3f 84 22 0d 3e 15 75 d7 bd d8 21 93 bf
       0.729486 0.13782698 -0.105203785 -1.1494703
000010 c0 08 53 3b 66 ac c9 3c 80 73 d4 3a da a8 d7 3f
       0.003220126 0.024618339 0.0016208738 1.6848404
000020 56 66 cd 3e 50 1f 6c 3e bc 1f 9b 3e 74 da a1 3d
       0.4011714 0.2305882 0.3029765 0.07902995
000030 b9 aa cb 3e 49 b5 a6 bd 50 2c e2 3e 45 fe 71 3e
       0.3977869 -0.08140046 0.44174433 0.23632152
000040 e8 d3 23 bd f0 0c 0e 3c 55 fa cc 3e c6 bc a8 bd
       -0.03999701 0.008670077 0.40034738 -0.08239131
000050 8c 32 dc 3d 03 04 eb 3d 9e a8 37 ba 76 f8 93 3e
       0.107518286 0.114753745 -0.0007006022 0.28900498
000060 ba 33 f6 bd 7a df ce bf 2a 97 e5 3c e7 b5 e9 bb
       -0.12021585 -1.616195 0.028026182 -0.00713228
000070 13 40 ff 3c d8 98 47 bd 8c 29 02 3f ce 09 f4 bd
       0.031158483 -0.048729748 0.50844646 -0.119159326
000080 9a 76 05 3f b9 5a a5 bd c0 50 f3 3d c0 61 73 3b
       0.52134097 -0.080739446 0.11880636 0.003713712
000090 07 0f 14 3f 74 6b e9 bd 28 51 e0 bc 18 e0 92 3d
       0.5783543 -0.11397448 -0.027382448 0.07171649
0000a0 30 6e 8a bc 3e 72 00 3f fc ab ac bd 86 9d 0c 3f
       -0.016898245 0.5017432 -0.08431241 0.5492786
0000b0 02 bd b2 3d 60 da d1 3c 8c a3 77 bd b5 6f b8 bd
       0.08727457 0.025616825 -0.060458705 -0.090056814
0000c0 c8 86 f3 3c 03 f0 23 3f 50 b0 3d bc f0 1a 69 bc
       0.029727355 0.64038104 -0.011577681 -0.014227614
0000d0 80 a0 83 ba 7d 4e b5 bd 60 71 bb 3b d4 03 0c bd
       -0.001004234 -0.08852861 0.0057203025 -0.03418334
0000e0 8e 42 09 3f fd d5 46 3e 73 be 12 3f de 45 fb 3e
       0.5361718 0.19417568 0.5732185 0.49076742
0000f0 d7 7b 16 be 3f a3 23 3f 3c 30 81 3d 7e cf d8 bd
       -0.14695679 0.6392097 0.06308028 -0.10586451
000100 26 84 e0 3e 50 4d 3e bd e7 3f 14 bc be 98 a2 bf
       0.4385082 -0.04646045 -0.009048439 -1.2702863
000110 02 df e3 3d ef dd ab bd 60 9f cb bd 6a 54 44 3f
       0.1112652 -0.0839194 -0.09942508 0.76691306
000120 b1 d4 e2 3e 6f e7 da 3e 88 c3 00 3f 7d f8 84 3b
       0.44302896 0.42754695 0.50298357 0.0040579424
000130 50 f6 95 3e 1c 7c f4 3c 16 47 0a 3f 60 0d b4 3e
       0.29289484 0.029844336 0.5401472 0.35166454
000140 90 74 e6 3c a4 aa cd bd 8c 57 c6 3e a0 46 97 bc
       0.028131753 -0.10042313 0.38738668 -0.018466294
000150 fa 68 98 3d 07 79 f7 bd f4 2a 8c 3d b0 28 e9 3e
       0.07441898 -0.12083631 0.0684413 0.45538855
000160 80 b1 91 3b 4a 35 b3 bf ec bc 00 be 44 67 77 bd
       0.0044462085 -1.4000638 -0.12572068 -0.060401216
000170 38 ae f7 3d 34 2c 3f bd 8c 26 f2 3e 68 a3 12 3d
       0.120937765 -0.046673015 0.47295034 0.035800368
000180 8d 3e d8 3e 7d 8d 40 bd 74 69 05 bd 48 3f 2b 3d
       0.42235222 -0.047009934 -0.03257127 0.041808397
000190 74 60 06 3f 29 1c ec bd 08 2c 24 3d 02 00 de bd
       0.52490926 -0.115288086 0.040081054 -0.10839845
0001a0 48 7c 92 bc d8 48 99 3e dc a1 28 3d 26 ce f3 3e
       -0.017881528 0.29938388 0.041169986 0.47618216
0001b0 60 8b ec bc 8b c3 04 be d9 5e e8 3b 4f 25 19 bd
       -0.028875053 -0.12965219 0.007091385 -0.037389096
0001c0 20 a6 57 3c 13 fb 07 3f 48 eb cf 3c 28 5d 39 3d
       0.013162166 0.53117484 0.025380746 0.045254856
0001d0 ac 45 a6 3d 04 01 54 3c 90 c8 5a 3c 4e a0 e3 bd
       0.081187576 0.012939695 0.013353482 -0.1111456
0001e0 52 69 25 3f fc 8b db 3e ed 70 04 3f f1 3d bc 3e
       0.6461383 0.42880237 0.5173481 0.36766008
0001f0 70 c1 32 bd de 68 17 3f fd f3 fb 3c fb dd 85 3d
       -0.043641508 0.5914439 0.030755991 0.0653648
000200 0b 1a e0 3e c8 37 96 bd 80 7d af 3d d2 40 b9 bf
       0.4376987 -0.07334858 0.08568859 -1.4472907
000210 e0 74 61 3c 52 10 a3 3c b0 2b b7 3d 1b 5a 8a 3d
       0.013760775 0.019905243 0.089438796 0.067554675
000220 51 dd 07 3f 95 48 12 3f ee 05 d5 3e c2 0a c3 3d
       0.5307208 0.57142 0.41606086 0.09523536
000230 04 fc e9 3e f9 1b db 3c 83 fc 00 3f df f1 03 3f
       0.45700085 0.026746737 0.503853 0.5154094
000240 2c 40 93 3d c4 69 87 bd 3a 71 03 3f a6 c6 a9 3d
       0.07189974 -0.0661197 0.51344645 0.08289842
000250 b4 6c 25 3d 3a 60 d0 bd a3 5a cb bd 5f 64 dc 3e
       0.04038687 -0.10174604 -0.09929397 0.43045327
000260 7c 88 20 bd 79 37 a3 bf b7 bb a2 bd d6 da dd 3d
       -0.03919266 -1.2751304 -0.0794596 0.10832755
000270 1c e6 9d bd 2c 7d b8 3c d4 b4 0d 3f ea a7 93 bd
       -0.077099055 0.022520624 0.55354047 -0.072097614
000280 54 c9 d5 3e 48 73 11 3d 8c 95 d6 bd 72 83 99 3d
       0.41755164 0.03551033 -0.104777426 0.07495774
000290 a0 1f ed 3e 4f a8 4a bd c4 59 97 3d 66 6a ab bd
       0.4631319 -0.049476918 0.07390168 -0.08369903
0002a0 48 5e c9 3d ee 09 c9 3e b6 a2 c0 3d 30 92 c9 3e
       0.09832436 0.39265388 0.09406035 0.39369345
0002b0 7c 2e 1e 3d ea f0 14 bb 6b 40 e9 bc dd 4c 18 3d
       0.03861855 -0.0022726604 -0.0284731 0.037182678
0002c0 c4 4e d5 3d a6 f3 da 3e 48 a5 e5 3c bc 68 d3 bd
       0.10415414 0.42764014 0.028032914 -0.10322711
0002d0 00 d1 3b 3c 10 15 bf 3c 40 d6 7a bd e8 9a e9 3c
       0.011463404 0.023325473 -0.06123948 0.028516248
0002e0 a4 0f fa 3e c1 46 08 3f 4c 14 b2 3e 4e 46 02 3f
       0.48840058 0.5323296 0.3478111 0.50888526
0002f0 64 51 9f 3d 67 7c ca 3e 4c c3 d4 3c f3 b6 45 bd
       0.07779196 0.39548036 0.025972031 -0.048270177
000300 46 cf b0 3e 5e 88 ac bd e5 17 d2 bd 4f 52 80 bf
       0.34533137 -0.084244475 -0.10258464 -1.0025119
000310 f4 fc 15 bd 8c 35 f8 bb ef 97 c0 bd 44 46 7a 3f
       -0.036618188 -0.0075747427 -0.09403979 0.97763467
000320 99 4c df 3e ff 33 e5 3e 82 2d d9 3e 75 6e e4 bc
       0.43613127 0.44766232 0.42417532 -0.027884701
000330 af f4 f1 3e 76 49 45 3d ee 7b ac 3e f8 80 d7 3e
       0.4725699 0.04816576 0.336883 0.42090583
000340 bc c2 99 bd 20 f4 ea 3c c6 fd d8 3e f8 10 82 bc
       -0.07507846 0.028680861 0.42381114 -0.015877232
000350 9d 68 64 3d 51 4d 8d bd bb 85 0f bd ff 2d e6 3e
       0.05576383 -0.068995126 -0.035039645 0.44956967
000360 7c ce 57 bd ec 32 8c bf 96 c1 02 bd 90 1e 1c bc
       -0.052687153 -1.095304 -0.0319229 -0.009528771
000370 0e 39 b0 3d 1d ea 75 3c 77 a2 fd 3e e4 ee 3b 3d
       0.08604632 0.01500943 0.49538013 0.04588212
000380 0e 25 ce 3e 1d b4 68 bd a8 b4 29 bd 49 83 8b 3c
       0.40262645 -0.056812394 -0.041432053 0.017030375
000390 aa f6 cd 3e c1 80 ab bc 4c 35 40 3d b6 4a 90 3d
       0.40227252 -0.020935418 0.046925828 0.070455
0003a0 00 ce d7 3d 22 28 ec 3e 90 47 ed bd c3 4e e8 3e
       0.10537338 0.4612437 -0.11585915 0.4537259
0003b0 56 31 86 bd 86 ad 47 bc 03 c7 6e bc 65 e7 9b bd
       -0.06552379 -0.012187367 -0.014573815 -0.076124944
0003c0 4c bc 70 3d 8b eb ee 3e ff f4 a0 3c 82 79 aa 3d
       0.058773324 0.4666408 0.019648073 0.08323957
0003d0 2d 66 b3 3d a1 93 b3 3b 30 3f c3 bc 6a 33 e6 bd
       0.08759723 0.005480245 -0.023833841 -0.11240275
0003e0 9d f5 f5 3e ce 78 e8 3e 84 f0 ce 3e 04 44 e7 3e
       0.4803895 0.45404667 0.40417874 0.4516908
0003f0 a4 b0 f0 bd e1 64 b1 3e 2e c0 a5 bc 4c 6e 46 bd
       -0.117524415 0.34647277 -0.02023324 -0.04844503

network.4.bias f4 [4]
000000 6e d1 bf 3e d9 97 b0 3c 30 13 01 be 44 20 07 3d
       0.3746447 0.021556782 -0.12604976 0.032989755
