models/dqn_agent_3.pt (torch, 86724 bytes, 24 tensors)

network.0.weight f4 [64, 5]
0	0xbfd94237	-1.6973332
1	0x3f673395	0.9031308
2	0x3e56fdf4	0.20995313
3	0xbda5f1eb	-0.08102783
4	0xbe02ba67	-0.1276642
5	0xc0b0874c	-5.5165157
6	0x3f0c6f81	0.5485764
7	0xbb3bebed	-0.0028674558
8	0x3dd413c2	0.10355331
9	0x3dec4cfe	0.115381226
10	0xc0147b7a	-2.3200364
11	0x3f1b7eb2	0.60740197
12	0x3ecb4689	0.39702252
13	0x3ee491f0	0.4464259
14	0x3f0b466a	0.5440432
15	0xc000a294	-2.009923
16	0x3f26e79b	0.6519715
17	0x3f08f0f5	0.5349267
18	0xbe312565	-0.17299421
19	0xbe0fccbc	-0.14042944
20	0xbdceb420	-0.1009295
21	0x3d85e250	0.06537306
22	0x3db6b180	0.08920574
23	0x3ebad51c	0.36490715
24	0xbea2ec7b	-0.31821045
25	0x3d67a420	0.056553006
26	0xbedfacd1	-0.43686536
27	0x3cde2470	0.027116984
28	0x3e6f5564	0.23372418
29	0x3e362b6c	0.17790002
30	0xc0f17fd4	-7.546854
31	0x3d91fdee	0.07128511
32	0xbe70e4ec	-0.23524827
33	0xbded8666	-0.115979
34	0x3e67507c	0.22589296
35	0xbdaf3448	-0.08554894
36	0xbe532fe3	-0.20623736
37	0x3e311fd0	0.17297292
38	0xbe4aa890	-0.19790864
39	0xbeb30110	-0.34961748
40	0xc0e9aa5a	-7.302045
41	0xbdb83d04	-0.08996013
42	0xbeae2d7a	-0.3401907
43	0xbda13990	-0.07872307
44	0x3ee2b674	0.44279826
45	0x3ea49326	0.32143515
46	0xbe8e9ba0	-0.27853107
47	0xbe9a2acf	-0.30110785
48	0x3e91dfe2	0.28491122
49	0x3ea668c8	0.32501817
50	0xc089b869	-4.303761
51	0xbdf7fa5f	-0.12108301
52	0x3ebbf06e	0.3670687
53	0x3d9ec150	0.07751715
54	0x3f232b47	0.6373791
55	0xbed23244	-0.41053975
56	0xbec1d10e	-0.3785481
57	0x3e08ec68	0.13371432
58	0x3ecf0ba0	0.40438557
59	0x3dad1681	0.08451558
60	0x3e2022e0	0.15638304
61	0xbd520990	-0.05127865
62	0xbdac6818	-0.08418292
63	0x3e71b72c	0.23605031
64	0x3e47ce48	0.19512284
65	0xc02d2d75	-2.7058995
66	0x3f52431d	0.82133657
67	0x3ee28138	0.4423921
68	0x3d3c8b63	0.046031367
69	0x3f0170a0	0.5056248
70	0xc0b2c6a3	-5.5867476
71	0x3f7487a7	0.9551949
72	0xbe73d116	-0.23810229
73	0x3d87cd40	0.06630945
74	0xbd6d33c7	-0.057910707
75	0x3e2df244	0.16986948
76	0xbd570788	-0.052497417
77	0x3bafa740	0.005360514
78	0xbe851751	-0.25994352
79	0x3d6255c0	0.05525756
80	0xc03c4220	-2.941536
81	0x3ee363a3	0.44411954
82	0x3f06e920	0.5269947
83	0xbdffa5d3	-0.124828
84	0x3f340468	0.70319223
85	0xc0cc53de	-6.3852377
86	0x3eadebae	0.33968872
87	0xbeb0fd40	-0.34568214
88	0xbeab4cb0	-0.33456945
89	0x3ea9d39c	0.33169258
90	0xbe18dd94	-0.14928275
91	0x3e5c0248	0.21485245
92	0xbe57e9ba	-0.21085253
93	0xbe7fa64d	-0.24965782
94	0xbed09f91	-0.4074674
95	0xc0adb67a	-5.428525
96	0xbee59de9	-0.44847038
97	0x3e11c78b	0.14236276
98	0xbee1648a	-0.44022018
99	0x3e8765e6	0.2644493
100	0xbe5b3b6f	-0.21409391
101	0xbdabed98	-0.08394927
102	0x3eba9dd2	0.36448532
103	0xbeb678ec	-0.3563913
104	0xbeabe222	-0.33570963
105	0xc032da30	-2.794567
106	0x3ec1b324	0.37831986
107	0x3e8a515c	0.27015197
108	0x3e9b7001	0.3035889
109	0x3e870f4f	0.26378867
110	0xbe5b6318	-0.2142452
111	0xbe91ec4e	-0.285006
112	0xbedd8c96	-0.4327132
113	0x3eb3d888	0.35126138
114	0xbec548ab	-0.38532004
115	0x3e6b335c	0.22968811
116	0xbe0e76d4	-0.13912517
117	0xbdec63a8	-0.115424454
118	0x3e09d82c	0.1346137
119	0x3eb5ed96	0.35532826
120	0xc04cbceb	-3.1990306
121	0x3f266168	0.6499238
122	0x3ea162f3	0.31520805
123	0xbd861384	-0.06546691
124	0x3e558b24	0.20853859
125	0xbec8521c	-0.39125144
126	0x3e3bdbc4	0.18345553
127	0xbda3effc	-0.08004758
128	0xbe12ab2c	-0.1432311
129	0xbe8229ed	-0.25422612
130	0xc0c1da86	-6.057925
131	0x3e3e5fdc	0.18591255
132	0xbd81a3df	-0.06330084
133	0x3de381f6	0.111087725
134	0x3e16b89b	0.14718859
135	0xbd5e8cd8	-0.054333538
136	0x3d283478	0.041065663
137	0x3dd45b50	0.10368979
138	0x3ed83398	0.42226863
139	0xbeb08158	-0.3447368
140	0x3e67ad1c	0.2262463
141	0xbe4fefd9	-0.20306338
142	0xbcc62330	-0.0241867
143	0x3e21ca64	0.15799862
144	0x3e8858da	0.26630288
145	0xc0987e72	-4.765435
146	0x3e8f97cb	0.28045496
147	0x3deb02a2	0.114751115
148	0xbd32c8e4	-0.043648615
149	0xbe542e83	-0.20720868
150	0xc0071f34	-2.1112795
151	0x3f477f2b	0.7792842
152	0xbe7489ab	-0.23880641
153	0x3e0228c2	0.1271086
154	0x3e4177cf	0.1889336
155	0xbfe8878a	-1.8166363
156	0x3f57667c	0.84140754
157	0xbe6949ee	-0.22782108
158	0x3cfa249e	0.030535039
159	0x3f03b51f	0.51448244
160	0x3e4af60c	0.19820422
161	0x3e162b71	0.14665009
162	0xbe1ccb7c	-0.15311998
163	0xbd5be440	-0.053684473
164	0x3e0df96f	0.13864683
165	0x3e68cc0c	0.22734088
166	0x3de2c850	0.11073363
167	0x3e9fddea	0.31223994
168	0xbe17c3da	-0.14820805
169	0xbed0f026	-0.4080822
170	0xc0915e22	-4.542741
171	0x3ee6ce9c	0.45079505
172	0x3e96593e	0.2936496
173	0xbdca7254	-0.098850876
174	0x3ecd7aa9	0.40132645
175	0x3d8eba88	0.06969172
176	0xbe921446	-0.28531092
177	0xbeb15341	-0.3463383
178	0x3e6f3f34	0.23363954
179	0xbdfda4ac	-0.12384924
180	0x3e0aa548	0.13539612
181	0xbe804184	-0.25049984
182	0xbedaf24b	-0.4276298
183	0xbe93cad4	-0.28865683
184	0xbe06d72c	-0.13168019
185	0xbd395460	-0.045246482
186	0x3d894bd8	0.06703919
187	0xbe948bb0	-0.29012823
188	0xbea882ac	-0.32912195
189	0xbec08696	-0.3760268
190	0xc075d72f	-3.8412588
191	0x3ed704cd	0.4199585
192	0xbeee2062	-0.4650908
193	0xbdfad1cf	-0.12247049
194	0x3e969e48	0.29417634
195	0xc016165a	-2.3451142
196	0x3f337e9f	0.70115083
197	0x3ede8ccd	0.43466797
198	0xbe8d1c92	-0.2756086
199	0x3ec5667b	0.3855475
200	0x40cea5b8	6.4577293
201	0x3f01cd9a	0.5070435
202	0x3eb25ccb	0.3483642
203	0x3f0aae3c	0.5417211
204	0x3d46baa3	0.048517834
205	0xbebf4643	-0.37358293
206	0xbdd54658	-0.10413808
207	0x3dcf1d58	0.10113019
208	0x3d8a6758	0.067579925
209	0x3e97bc82	0.29636008
210	0x40d938f8	6.788204
211	0x3e97a1de	0.29615682
212	0x3f31437e	0.6924361
213	0x3f33d2cc	0.70243526
214	0xbe47f628	-0.19527495
215	0xc097fbd1	-4.7494893
216	0x3eef5ba4	0.46749604
217	0xbeef881d	-0.46783534
218	0xbedf67e3	-0.43633947
219	0x3e51ff02	0.20507434
220	0xc0b88973	-5.7667785
221	0xbea70a40	-0.32625008
222	0x3e8a3e78	0.27000785
223	0x3e656c73	0.22404651
224	0x3eb83890	0.35980654
225	0xbecf5eaa	-0.4050191
226	0x3d9c2330	0.07623899
227	0xbd89be2c	-0.067257255
228	0x3ee2a10a	0.44263488
229	0x3ea44b28	0.3208859
230	0x401006d8	2.2504177
231	0xbec8667c	-0.3914069
232	0x3ea049bc	0.31306255
233	0x3e9e935b	0.30971798
234	0x3e9e7677	0.30949757
235	0xbe904acd	-0.28182068
236	0xbe981f5c	-0.29711425
237	0x3e5ee194	0.21765739
238	0x3e1707e8	0.1474911
239	0x3e92f342	0.28701216
240	0x3e7903fc	0.24317926
241	0x3ecece16	0.40391606
242	0xbea9de58	-0.33177447
243	0x3d5b69b0	0.05356759
244	0x3d83b380	0.06430721
245	0x3e96fc74	0.2948948
246	0x3d8905e0	0.06690574
247	0x3dd0dc18	0.101982296
248	0xbe164c58	-0.1467756
249	0xbec50407	-0.38479635
250	0x3ec71469	0.3888276
251	0xbd8274ff	-0.063699715
252	0x3ecdacb8	0.40170836
253	0xbe86494e	-0.26227802
254	0xbebd632b	-0.36989722
255	0x3ec56892	0.38556343

network.0.bias f4 [64]
0	0x3eddf507	0.43351004
1	0xbe8d26c6	-0.27568644
2	0x3e8befe7	0.27331468
3	0x3edcfa8c	0.43159902
4	0xbec3549c	-0.3815049
5	0xbd720be8	-0.059093386
6	0xbccfe6cd	-0.02537861
7	0x3d5cbce0	0.053891063
8	0x3e16a332	0.14710692
9	0xbe8459fa	-0.25849897
10	0x3f1b32f8	0.6062465
11	0xbe18e176	-0.14929757
12	0xbeab3b36	-0.33443612
13	0xbd1933f1	-0.03740305
14	0xbe37deea	-0.17956129
15	0xbe04db2e	-0.12974235
16	0x3ed1f115	0.41004243
17	0x3c45472a	0.012040893
18	0xbe824c0c	-0.25448644
19	0x3e490bec	0.19633454
20	0xbecfe8d0	-0.4060731
21	0x3d173688	0.03691724
22	0xbd502758	-0.05081877
23	0xbe82238c	-0.25417745
24	0x3ea911cd	0.33021393
25	0xbe140424	-0.14454705
26	0xbd556dbd	-0.052106608
27	0xbd4b75f8	-0.04967305
28	0xbe22f684	-0.15914351
29	0x3e4ef6fb	0.20211403
30	0x3eb0ceb8	0.34532714
31	0x3dd68dee	0.1047629
32	0xbe1a4934	-0.15066987
33	0xbedeb71b	-0.43499073
34	0xbeb2f160	-0.3494978
35	0xbedd983c	-0.43280208
36	0xbd693280	-0.056932926
37	0xbe59c651	-0.21267058
38	0x3ea384e4	0.31937325
39	0x3d7b8be6	0.061412714
40	0x3f6ba9a1	0.9205571
41	0xbec2adcc	-0.38023221
42	0x3e8d8da8	0.27647138
43	0x3e151cf8	0.14561832
44	0xbe7ba9a8	-0.24576437
45	0xbeb9260b	-0.36161837
46	0x3ed6cbc2	0.4195233
47	0xbec33113	-0.38123378
48	0xbe847e0a	-0.2587741
49	0xbddb6658	-0.1071288
50	0xbe15391b	-0.14572565
51	0xbe6513b8	-0.22370803
52	0xbe34b63d	-0.17647643
53	0xbef5de3d	-0.48021117
54	0x3b390800	0.0028233528
55	0x3e765337	0.24055181
56	0x3eb4ab51	0.35286954
57	0xbed80acd	-0.4219574
58	0xbed09094	-0.40735304
59	0x3ea94ea8	0.33067822
60	0x3ef4e72b	0.47832617
61	0xbe8072ea	-0.25087672
62	0xbef734a2	-0.48282343
63	0x3e9fd2ff	0.31215665

network.2.weight f4 [64, 64]
0	0x3f027cfd	0.50971967
1	0x3e60fe73	0.21972065
2	0x3f104cd8	0.56367254
3	0x3f16c5df	0.5889568
4	0xbc8252e8	-0.015908673
5	0xbdb6fdbe	-0.08935116
6	0x4016acea	2.3543038
7	0x3dd63c22	0.10460688
8	0x3e49f091	0.19720675
9	0x3de86ac0	0.11348486
10	0x3f01c51d	0.50691396
11	0xbd89345e	-0.066994414
12	0xbd333b84	-0.04375793
13	0x3f0e0d0b	0.5548865
14	0x3f5a0d8b	0.85176915
15	0xbda1e570	-0.0790509
16	0x3f0d17c1	0.5511437
17	0x3df12f9b	0.11776658
18	0xbdd29a00	-0.102832794
19	0x3eee1806	0.46502703
20	0x3c9e6258	0.019334003
21	0x3eed76c4	0.46379673
22	0x3dcd92fc	0.10037801
23	0x3dc73e64	0.09728697
24	0x3ed5c282	0.4174996
25	0x3d9fb010	0.07797253
26	0x3ebc7540	0.36808205
27	0x3de3db4e	0.111258134
28	0xbca70fa8	-0.020393208
29	0x3ee69bce	0.45040745
30	0x3f1a3dd4	0.6025059
31	0x3ef8b25c	0.48573577
32	0x3c2b82e2	0.010468217
33	0xbdae8564	-0.08521536
34	0x3f062153	0.523946
35	0xbb9f5060	-0.0048618764
36	0xbd8e4f0c	-0.06948671
37	0xbd02deb8	-0.031950682
38	0x3ecbae85	0.39781585
39	0x3f128a58	0.57242346
40	0xbdef6893	-0.11689868
41	0x3c8118f0	0.015758961
42	0xbebcd6cf	-0.36882636
43	0x3d9775f7	0.07395547
44	0x3e9e3273	0.30897865
45	0x3dda3974	0.106554896
46	0x3bbd4a25	0.005776661
47	0x3cd08e30	0.025458425
48	0xbd0b8f0c	-0.034071967
49	0xbc949fd0	-0.01814261
50	0xbd594239	-0.05304167
51	0x3d353354	0.044238403
52	0x3fdfc331	1.7481443
53	0x3fb08a65	1.3792235
54	0x3d2760fc	0.040863976
55	0xbe32a355	-0.17445119
56	0xba83b0df	-0.0010047219
57	0xbd56af13	-0.052413058
58	0x3dca2622	0.098705545
59	0x3f129a2d	0.57266504
60	0x3eee656a	0.46561748
61	0x3de682da	0.11255427
62	0x3fb1f70a	1.3903515
63	0x3edf305e	0.4359159
64	0xbdac2e86	-0.08407311
65	0x3d91fe98	0.07128638
66	0x3dabe30d	0.08392916
67	0x3da74581	0.08167554
68	0x3dab7cb4	0.083733946
69	0x3d5a4014	0.053283766
70	0xbdb39bea	-0.087699726
71	0xbaadc600	-0.0013257861
72	0xbc803b84	-0.01565338
73	0xbd521b08	-0.05129531
74	0xbc2381c9	-0.009979674
75	0xbde156b6	-0.11002867
76	0xbc239960	-0.009985298
77	0xbd8dabb0	-0.069175124
78	0xbd1222af	-0.035677608
79	0x3df38b1c	0.118917674
80	0xbddcf200	-0.10788345
81	0x3d7acfcd	0.06123333
82	0x3da37fea	0.07983382
83	0xbde9ca79	-0.11415572
84	0x3c2def10	0.010616079
85	0xbd8ed53d	-0.06974266
86	0xbdd48e4e	-0.10378705
87	0x3da88b6a	0.08229716
88	0x3dd486f4	0.10377303
89	0x3db69ffa	0.08917232
90	0x3d102e7c	0.03520058
91	0x3d614768	0.05499974
92	0x3dd7c47a	0.10535522
93	0x3d3c7b29	0.046015892
94	0xbdb43513	-0.087991856
95	0xbdf1d2d8	-0.118077934
96	0xbd9ade8e	-0.0756198
97	0x3dfbc9e8	0.1229437
98	0x3d257d86	0.04040291
99	0x3d6f0300	0.05835247
100	0x3c9a4b30	0.01883468
101	0xbd4deaa8	-0.050272614
102	0x3d4d920e	0.050188117
103	0xbe03acb4	-0.1285885
104	0xbcb6d940	-0.02232039
105	0x3d933816	0.07188432
106	0xbdc4beb4	-0.09606686
107	0xbdee326f	-0.11630713
108	0xbdedd1be	-0.11612271
109	0x3d10a428	0.0353128
110	0xbdb324d8	-0.08747262
111	0xbd639380	-0.05556059
112	0xbd828064	-0.06372145
113	0x3d996e46	0.07491736
114	0x3b83c3e0	0.004021153
115	0xbde27aac	-0.11058554
116	0xbdce8e05	-0.10085682
117	0xbdc05dbb	-0.09392878
118	0x3c927000	0.017875671
119	0x3da5c396	0.08093946
120	0x3dbc57c2	0.09196426
121	0xbdee759c	-0.11643526
122	0x3d76fd7c	0.060300335
123	0x3ceb30f7	0.028709872
124	0x3bfc0ff7	0.007692333
125	0x3d7d8de8	0.06190291
126	0x3dd0d27d	0.101963975
127	0xbdc112c7	-0.094274096
128	0xbd91dcde	-0.07122205
129	0xbdaf62b0	-0.08563745
130	0xbda5ced0	-0.08096087
131	0xbcee41f0	-0.029084176
132	0xbd09a3ec	-0.033603594
133	0x3d986868	0.07441789
134	0xbd936b7c	-0.071982354
135	0xbddc544a	-0.10758264
136	0xbdb93f0c	-0.09045228
137	0xbc3bb130	-0.011455819
138	0xbca63f30	-0.020293802
139	0xbdc06af2	-0.09395398
140	0x3d1aabb0	0.03776139
141	0x3d05755c	0.032582626
142	0x3cd61928	0.026135042
143	0xbde652cc	-0.11246261
144	0xbd862afc	-0.06551167
145	0xbc812568	-0.015764907
146	0x3d98eb02	0.07466699
147	0x3bae4780	0.005318582
148	0xbc2fd080	-0.010730863
149	0xbdb7c082	-0.08972265
150	0xbda38376	-0.079840586
151	0xbde4a554	-0.11164346
152	0x3dbaa57e	0.091135964
153	0x3dca74be	0.09885548
154	0xbda90414	-0.08252731
155	0xbdae564a	-0.08512552
156	0x3d9661a6	0.07342844
157	0x3df8c7de	0.12147497
158	0xbd643b94	-0.05572088
159	0xbdb308de	-0.08741926
160	0xbdb212a2	-0.0869496
161	0x3d056858	0.032570213
162	0x3bdef180	0.0068036914
163	0xbd988100	-0.0744648
164	0x3c2158f0	0.0098478645
165	0xbbdccfc0	-0.006738633
166	0x3cc59ef8	0.024123654
167	0x3d9ba216	0.07599275
168	0x3bf33160	0.0074216574
169	0x3d73d3a0	0.059527993
170	0xbd826f88	-0.06368929
171	0x3d8d2092	0.06890978
172	0x3db4058e	0.08790122
173	0x3d856cda	0.065149024
174	0xbda780cc	-0.08178863
175	0x3c7ff520	0.015622407
176	0x3d58a70c	0.052893683
177	0x3d878a4c	0.06618175
178	0xbd5e4cf0	-0.054272592
179	0xbd10b454	-0.035328224
180	0x3b6976c0	0.003562376
181	0x3d02f7b0	0.031974494
182	0x3ddfa492	0.10920061
183	0xbcda5680	-0.026652575
184	0x3dfef3ba	0.12448831
185	0x3dddabba	0.1082377
186	0x3da754c2	0.08170463
187	0xba4dfb00	-0.00078575313
188	0xbd65e2a0	-0.05612433
189	0xbd37c6b4	-0.044867232
190	0xbdc4d662	-0.09611203
191	0xbdfdc142	-0.123903766
192	0x3df8a7c4	0.12141374
193	0x3f115a47	0.5677838
194	0x3e52567b	0.20540802
195	0x3dd66ca6	0.10469942
196	0xbd71e698	-0.059057802
197	0x3d90a1ba	0.07062097
198	0x401afa37	2.421522
199	0x3d8150cc	0.06314239
200	0x3f9dba7e	1.2322538
201	0xbcb435c8	-0.021998301
202	0x3e6603a4	0.22462326
203	0xbc8dc708	-0.01730682
204	0x3bfa41a0	0.0076372176
205	0x3eb172ec	0.3465799
206	0x3f67f1cc	0.9060333
207	0x3c8fc898	0.017551705
208	0x3d3df7e7	0.046378996
209	0x3f431d08	0.76216173
210	0xbd05cfe0	-0.03266895
211	0x3f2867eb	0.65783566
212	0xbddc87b8	-0.10768074
213	0x3e5417cc	0.20712203
214	0xbdc58b2c	-0.096456856
215	0xbd2d2c28	-0.04227844
216	0x3ea3bdc2	0.3198071
217	0xbd8b6c4a	-0.06807764
218	0x3f19ec57	0.6012625
219	0x3d52d988	0.051476985
220	0xbd8720e4	-0.0659807
221	0x3e3ce9ce	0.18448564
222	0x3e6bdc80	0.23033333
223	0x3e94a875	0.29034773
224	0x3de7d49b	0.11319848
225	0xbcee4b80	-0.029088736
226	0x3eb92f0f	0.36168715
227	0xbda27c36	-0.079338476
228	0xbdeee8aa	-0.11665471
229	0x3dc44cec	0.09584984
230	0x3e65fa79	0.22458829
231	0x3d9a5096	0.07534902
232	0xbf98bda1	-1.193287
233	0xbd10816c	-0.035279676
234	0xbfbbb618	-1.4664946
235	0x3f08ddd9	0.5346351
236	0x3f79c566	0.9756683
237	0xbca83558	-0.020533249
238	0xbf1f71b8	-0.62282896
239	0x3dea0ee0	0.114286184
240	0xbdec8a44	-0.115498096
241	0x3de764ae	0.112985
242	0xbdb6b083	-0.08920386
243	0xbd8815de	-0.06644796
244	0x3fdd8036	1.7304752
245	0x3f7f72f9	0.9978481
246	0x3da305a8	0.07960063
247	0x3f1f0be6	0.6212753
248	0xbb251800	-0.0025191307
249	0xbd3e2706	-0.046423934
250	0xbce1aef0	-0.027549237
251	0x3e985c22	0.29757792
252	0x3e3b3107	0.18280421
253	0x3da3933c	0.07987067
254	0x3fb42f62	1.407696
255	0x3e9a7a5a	0.30171472

network.2.bias f4 [64]
0	0x3e85529c	0.26039588
1	0x3dce05b5	0.10059682
2	0xbd0bec38	-0.034160823
3	0xb81278dc	-3.492167e-05
4	0xbcee32e4	-0.029077
5	0xbdea850e	-0.114511594
6	0x3dc5e9b3	0.09663715
7	0xbd88fc6a	-0.06688769
8	0x3b496521	0.0030730444
9	0xbd4abd3e	-0.04949688
10	0x3e94105f	0.2891874
11	0xbd773617	-0.06035432
12	0x3e9d73d6	0.30752438
13	0x3c0fd8e9	0.008779743
14	0xbc3bdfc6	-0.011466926
15	0x3d9daeec	0.07699379
16	0xbdc8b74f	-0.09800588
17	0xbbac185d	-0.0052519278
18	0xbddc921b	-0.10770055
19	0x3c817fd0	0.015808016
20	0x3b5b1d21	0.003343411
21	0x3cb88c3b	0.022527805
22	0xbd7b1478	-0.061298817
23	0x3ce4f5d7	0.027949257
24	0x3d905efe	0.07049368
25	0xbda548e6	-0.08070545
26	0x3dd676fa	0.10471912
27	0xbd37988c	-0.044823214
28	0x3eab4e89	0.33458355
29	0xbcad1e67	-0.021132661
30	0xbddc0b69	-0.10744364
31	0x3d6cd8e1	0.05782402
32	0x3d8d5962	0.06901814
33	0xb85b6639	-5.230887e-05
34	0x3ea246c3	0.31694612
35	0xbdde72c2	-0.10861732
36	0xbe8ace6c	-0.27110612
37	0xbd49ab78	-0.04923579
38	0xbdb5e2bb	-0.08881136
39	0xbeea755b	-0.4579266
40	0xbdbc4766	-0.09193306
41	0xbe4cacbb	-0.19987766
42	0xbde1657e	-0.11005686
43	0x3de6fd9b	0.1127884
44	0xbd3904cd	-0.045170594
45	0x3d19836c	0.03747885
46	0x3e997fe9	0.299804
47	0xbe0c115e	-0.136785
48	0xbc3a3c70	-0.0113669485
49	0xbd166e94	-0.03672655
50	0x3ebcdc0d	0.36886635
51	0xbd837860	-0.06419444
52	0xbe690d67	-0.22759019
53	0xbe071acd	-0.13193817
54	0xbdb5bfc6	-0.088744685
55	0x3eb4ee70	0.35338163
56	0xbad24343	-0.0016041774
57	0xbc32c1f8	-0.010910504
58	0x3be2fde0	0.006927237
59	0x3f29130a	0.66044676
60	0xbdb3535c	-0.08756134
61	0xbe0bf371	-0.13667084
62	0x3d8a5610	0.06754696
63	0x3e88be2c	0.2670759

network.4.weight f4 [4, 64]
0	0x3eea184b	0.4572166
1	0xbd93749c	-0.07199976
2	0xbda93852	-0.08262695
3	0x3f16d48a	0.5891806
4	0x3cdab5e1	0.026698055
5	0x3ee67fff	0.45019528
6	0x3ea33da2	0.3188296
7	0xbdc7289a	-0.09724541
8	0xbcc93730	-0.024562448
9	0x3d434f11	0.047682825
10	0x3ec35b8d	0.38155785
11	0xbd1a6dbb	-0.037702303
12	0x3e7d7807	0.24752818
13	0xbdc9cc71	-0.09853447
14	0xbd97c0cb	-0.07409819
15	0x3de8f27e	0.11374377
16	0x3ee88619	0.45414808
17	0xbd863f4c	-0.06555042
18	0x3f1fd45f	0.6243343
19	0x3dd3f7cc	0.10349998
20	0xbd89708e	-0.06710921
21	0x3dceeff4	0.10104361
22	0x3d79d90c	0.060998008
23	0x3f997e64	1.1991696
24	0x3ea00658	0.3125484
25	0xbdc880c4	-0.09790185
26	0xbc9ea34e	-0.01936498
27	0x3bdc305a	0.006719631
28	0xbfb0aaac	-1.3802085
29	0xbd6b07a0	-0.05738032
30	0x3f890af5	1.0706469
31	0xbdd5e0b6	-0.10443251
32	0xbd8ab249	-0.067722864
33	0xbe12f662	-0.143518
34	0x3eb6c60c	0.35697973
35	0x3d9282e6	0.07153873
36	0x3fdede69	1.7411624
37	0x3bc8cca0	0.006127909
38	0x3f04aa87	0.51822704
39	0xbf446b97	-0.7672667
40	0x3d053d63	0.032529246
41	0x3f880cd8	1.062892
42	0x3f27b70b	0.65513676
43	0xbdbdf711	-0.0927564
44	0xbdac88ff	-0.084245674
45	0xbda989d0	-0.08278239
46	0xbf7c251e	-0.98494136
47	0xbde9de80	-0.11419392
48	0xbdb0b7ec	-0.0862883
49	0xbda4197c	-0.08012673
50	0x3ebeb4fc	0.37247455
51	0xbd8af9c8	-0.06785923
52	0x3eeddf0f	0.46459243
53	0x3f81cfe2	1.0141566
54	0xbd91fea0	-0.07128644
55	0x3ec468c1	0.3836117
56	0x3c189636	0.009313157
57	0x3fa870d2	1.315943
58	0x3c0f8370	0.0087593645
59	0x3fdf8d1f	1.7464942
60	0xbcc1b7c8	-0.023647204
61	0x3cd84f71	0.026405068
62	0x3de3045c	0.11084816
63	0x3e2f6db3	0.1713169
64	0x3ed70faa	0.42004138
65	0xbde8eb96	-0.113730595
66	0xbc279fe0	-0.010230988
67	0x3f1ac613	0.6045849
68	0x3dc970d4	0.098359734
69	0x3ef5b6c0	0.4799099
70	0x3e8c6a08	0.27424645
71	0x3d230a90	0.039804995
72	0xbb62cf0a	-0.0034608268
73	0xbc847e6b	-0.016173562
74	0x3f6c3812	0.92273057
75	0x3c65ea10	0.014032856
76	0x3e7765c3	0.24159913
77	0xbdfd4e2f	-0.12368428
78	0xbdaf37dc	-0.08555576
79	0x3d852608	0.065013945
80	0x3ee8b8d4	0.45453513
81	0xbd8f7b2a	-0.070059136
82	0x3efcfadd	0.49410143
83	0xbd821f36	-0.06353609
84	0x3dadfd36	0.08495562
85	0xbc1ed9dd	-0.009695497
86	0x3de4ab12	0.111654416
87	0x3f15f86c	0.58582187
88	0x3df810e0	0.12112594
89	0xbd392b7c	-0.045207486
90	0x3d27f56f	0.041005548
91	0xbd2d4800	-0.042304993
92	0xc0009989	-2.009371
93	0xbd5f7926	-0.054558896
94	0x3f37036e	0.7148961
95	0xbdf53ad2	-0.1197411
96	0xbc701a80	-0.014654756
97	0x3d1f8d75	0.038953263
98	0x3e8008fc	0.25006855
99	0x3ddf12f4	0.10892287
100	0x3f34dff3	0.7065422
101	0x3d46a5b8	0.048497885
102	0x3ead307f	0.33826062
103	0x3d207e92	0.039183207
104	0xbd6626e0	-0.056189418
105	0x3f17cd23	0.5929739
106	0x3ebcd6bd	0.36882582
107	0xbd8a1a5d	-0.0674331
108	0xbc00864e	-0.007844521
109	0xbd9cb50c	-0.076517195
110	0xbf2e75c1	-0.6814843
111	0x3dc91686	0.09818749
112	0x3d0826c0	0.03324008
113	0xbd700b00	-0.05860424
114	0x3ef5fbfc	0.4804381
115	0x3cf9dac8	0.03049983
116	0x3ed2a37a	0.41140348
117	0x3f24413d	0.64162046
118	0xbd501900	-0.05080509
119	0x3eab792b	0.3349088
120	0x3d841a4f	0.064503305
121	0x3f660125	0.89845496
122	0x3d94867a	0.07252212
123	0x3f931fc0	1.1494064
124	0xbc0b87d0	-0.008516267
125	0x3df96375	0.12177173
126	0x3d8975a6	0.06711893
127	0x3eaee581	0.34159473
128	0x3ed18fc1	0.40929988
129	0x3ddb3aac	0.1070455
130	0x3ddd1768	0.1079548
131	0x3f100d82	0.5627061
132	0x3c708e24	0.0146823265
133	0x3f256a22	0.6461507
134	0x3eb9092f	0.3613982
135	0x3d8a2ae4	0.06746462
136	0xbd719ba2	-0.058986314
137	0x3d7b7ae4	0.061396495
138	0x3f1870a9	0.59546906
139	0x3d503b70	0.050837934
140	0x3edd827c	0.43263614
141	0x3d0ec926	0.0348598
142	0x3d62c8e2	0.055367358
143	0xbd886f70	-0.0666188
144	0x3f1409b6	0.5782732
145	0xbdf40628	-0.11915237
146	0x3e9506ae	0.2910666
147	0x3c706f10	0.014674917
148	0xbdf635f2	-0.12022008
149	0x3deb76f0	0.11497295
150	0xbd0e0f74	-0.034682706
151	0x3ddb7995	0.10716549
152	0x3ebbc857	0.36676285
153	0xbe055f18	-0.13024557
154	0xbd0d1c4f	-0.034450825
155	0xbda33784	-0.07969573
156	0xbfda25cd	-1.7042786
157	0x3d8b5593	0.06803431
158	0x3f055be4	0.5209334
159	0x3dbb1855	0.091355
160	0xbd36f5f8	-0.044668168
161	0x3d103823	0.035209786
162	0x3ead5797	0.33855888
163	0xbd513220	-0.051073194
164	0x3ee0f1d5	0.43934503
165	0xbd3410d0	-0.043961346
166	0x3ef18f87	0.47179815
167	0x3e08bfa3	0.13354354
168	0xbc288fb0	-0.010288164
169	0x3f01e01f	0.50732607
170	0x3e8e1fd8	0.2775867
171	0xbb9efc7d	-0.0048518763
172	0x3dcfc565	0.10145072
173	0xbdb3e884	-0.08784583
174	0xbf6179d8	-0.88076544
175	0xbd8c04d2	-0.06836857
176	0x3d5c30c4	0.053757444
177	0xbcc83ba0	-0.024442494
178	0x3efe3931	0.4965301
179	0xbd9a8e3e	-0.07546662
180	0x3ed3b053	0.41345462
181	0x3f0430ea	0.51637137
182	0x3dc12d1a	0.094324306
183	0x3eb85a98	0.36006618
184	0x3ddf8eda	0.10915919
185	0x3ef1e9fe	0.47248834
186	0xbd142ec0	-0.036177397
187	0x3f8a0936	1.0784061
188	0xbd934ee8	-0.071927845
189	0xbd72c5e1	-0.059270743
190	0x3de429f4	0.111408144
191	0x3f006960	0.5016079
192	0x3ee766b0	0.45195532
193	0x3e041c5f	0.12901448
194	0x3c76d340	0.015065014
195	0x3f8c353a	1.0953743
196	0xbcbc5c06	-0.022993099
197	0x3f718d57	0.9435629
198	0x3e492fd5	0.19647153
199	0xbdd4465e	-0.10364984
200	0x3d23c538	0.039983004
201	0xbd39442c	-0.04523103
202	0x3ef48699	0.4775894
203	0xbd105f2f	-0.035247024
204	0x3eaab56d	0.33341542
205	0xbd1122fd	-0.035433758
206	0xbdae0654	-0.08497301
207	0xbd7bc7d8	-0.061469883
208	0x3f56c63e	0.83896244
209	0x3d1592f7	0.03651711
210	0x3f020e43	0.5080301
211	0xbc34fbd0	-0.011046365
212	0x3dd28b4c	0.10280475
213	0x3d990215	0.074711
214	0x3c3b6590	0.011437789
215	0x3f2d50f7	0.6770167
216	0x3e95ce18	0.292588
217	0xbc9fcee4	-0.019507833
218	0xbd404aa8	-0.046946198
219	0x3d7d5c55	0.061855633
220	0xbfa5d121	-1.2954446
221	0xbd44235d	-0.047885288
222	0x3f2c2c8f	0.6725549
223	0xbc89e32c	-0.016831957
224	0x3d1be988	0.03806451
225	0xbd9c98d4	-0.07646337
226	0x3e3886b6	0.18020138
227	0xbdbed40e	-0.0931779
228	0x3f79d469	0.9758974
229	0xbd4127b0	-0.04715699
230	0x3ee1e0d4	0.44116843
231	0x3eb0821a	0.3447426
232	0xbdb89362	-0.09012486
233	0x3f293e1c	0.66110396
234	0x3f267737	0.6502566
235	0x3db121bd	0.08649013
236	0x3d71dca7	0.05904832
237	0xbd68ac98	-0.056805223
238	0xbde5e79a	-0.11225815
239	0xbd7d46ec	-0.061835214
240	0xbd65bf44	-0.05609061
241	0x3dd0112e	0.10159527
242	0x3eb6dc98	0.35715175
243	0x3d824a20	0.063617945
244	0x3eeef740	0.46673012
245	0x3f622f2f	0.88353246
246	0x3db48b7c	0.08815667
247	0x3eb4def2	0.35326344
248	0x3c311369	0.01080785
249	0x3f25dd88	0.64791155
250	0x3d3a0bc4	0.045421377
251	0x3fc4a720	1.5363503
252	0x3d9e64e2	0.077340856
253	0x3c1672ab	0.009182612
254	0x3d16f6b8	0.036856383
255	0x3ea513f3	0.32241783

network.4.bias f4 [4]
0	0x3ea1bce3	0.31589422
1	0x3eaa4b30	0.3326049
2	0x3e6514ad	0.22371168
3	0x3e51b624	0.20479637

network.0.weight f4 [64, 5]
0	0xbfd90619	-1.6954986
1	0x3f67536c	0.90361667
2	0x3e57c386	0.2107068
3	0xbda466c5	-0.08027414
4	0xbe020a50	-0.12699246
5	0xc0b07625	-5.514422
6	0x3f0c0236	0.54690874
7	0xbb9b269b	-0.0047348267
8	0x3dd040ba	0.101685956
9	0x3de8826a	0.113529995
10	0xc0145bef	-2.3181112
11	0x3f1b95af	0.60775274
12	0x3ecb989a	0.39764863
13	0x3ee4e401	0.44705203
14	0x3f0b69b0	0.5445814
15	0xc000839c	-2.0080328
16	0x3f270701	0.6524506
17	0x3f092194	0.5356686
18	0xbe3062e8	-0.1722523
19	0xbe0f1fd6	-0.13976988
20	0xbdceb420	-0.1009295
21	0x3d85e250	0.06537306
22	0x3db6b180	0.08920574
23	0x3ebad51c	0.36490715
24	0xbea2ec7b	-0.31821045
25	0x3d67a420	0.056553006
26	0xbedfacd1	-0.43686536
27	0x3cde2470	0.027116984
28	0x3e6f5564	0.23372418
29	0x3e362b6c	0.17790002
30	0xc0f17fd4	-7.546854
31	0x3d91fdee	0.07128511
32	0xbe70e4ec	-0.23524827
33	0xbded8666	-0.115979
34	0x3e67507c	0.22589296
35	0xbdaf3448	-0.08554894
36	0xbe532fe3	-0.20623736
37	0x3e311fd0	0.17297292
38	0xbe4aa890	-0.19790864
39	0xbeb30110	-0.34961748
40	0xc0e99e91	-7.3006063
41	0xbdbc406c	-0.09191975
42	0xbeaf679e	-0.3425874
43	0xbda6221b	-0.08111974
44	0x3ee1879b	0.4404877
45	0x3ea49326	0.32143515
46	0xbe8e9ba0	-0.27853107
47	0xbe9a2acf	-0.30110785
48	0x3e91dfe2	0.28491122
49	0x3ea668c8	0.32501817
50	0xc089a52c	-4.3014126
51	0xbdf84cb4	-0.12124005
52	0x3ebbffb3	0.3671852
53	0x3d9efe62	0.077633634
54	0x3f232c03	0.6373903
55	0xbed23244	-0.41053975
56	0xbec1d10e	-0.3785481
57	0x3e08ec68	0.13371432
58	0x3ecf0ba0	0.40438557
59	0x3dad1681	0.08451558
60	0x3e2022e0	0.15638304
61	0xbd520990	-0.05127865
62	0xbdac6818	-0.08418292
63	0x3e71b72c	0.23605031
64	0x3e47ce48	0.19512284
65	0xc02d0e50	-2.7039986
66	0x3f5255e0	0.82162285
67	0x3ee2cb20	0.44295597
68	0x3d3edaa8	0.046595246
69	0x3f018fbf	0.50609964
70	0xc0b2b16f	-5.5841594
71	0x3f74a7c0	0.95568466
72	0xbe7308f7	-0.23733889
73	0x3d895d7e	0.06707285
74	0xbd6a6881	-0.05722857
75	0x3e2df244	0.16986948
76	0xbd570788	-0.052497417
77	0x3bafa740	0.005360514
78	0xbe851751	-0.25994352
79	0x3d6255c0	0.05525756
80	0xc03c2111	-2.9395182
81	0x3ee3906d	0.44446126
82	0x3f0710d0	0.5276003
83	0xbdfe6852	-0.12422241
84	0x3f34265f	0.7037105
85	0xc0cc4408	-6.3833046
86	0x3ead0446	0.33792323
87	0xbeb1fd08	-0.3476336
88	0xbeac4c77	-0.33652088
89	0x3ea8d51b	0.32975087
90	0xbe18dd94	-0.14928275
91	0x3e5c0248	0.21485245
92	0xbe57e9ba	-0.21085253
93	0xbe7fa64d	-0.24965782
94	0xbed09f91	-0.4074674
95	0xc0ada8a0	-5.426834
96	0xbee64c33	-0.4498001
97	0x3e1007b2	0.14065436
98	0xbee24476	-0.44192857
99	0x3e869084	0.26282132
100	0xbe5b3b6f	-0.21409391
101	0xbdabed98	-0.08394927
102	0x3eba9dd2	0.36448532
103	0xbeb678ec	-0.3563913
104	0xbeabe222	-0.33570963
105	0xc032b6fd	-2.7924187
106	0x3ec1bb5f	0.37838265
107	0x3e8a7c40	0.2704792
108	0x3e9b9ae4	0.3039161
109	0x3e872ded	0.26402226
110	0xbe5b6318	-0.2142452
111	0xbe91ec4e	-0.285006
112	0xbedd8c96	-0.4327132
113	0x3eb3d888	0.35126138
114	0xbec548ab	-0.38532004
115	0x3e6b335c	0.22968811
116	0xbe0e76d4	-0.13912517
117	0xbdec63a8	-0.115424454
118	0x3e09d82c	0.1346137
119	0x3eb5ed96	0.35532826
120	0xc04c9ba7	-3.1970003
121	0x3f266571	0.6499854
122	0x3ea19088	0.3155558
123	0xbd855d32	-0.06511916
124	0x3e55ccb8	0.20878875
125	0xbec8521c	-0.39125144
126	0x3e3bdbc4	0.18345553
127	0xbda3effc	-0.08004758
128	0xbe12ab2c	-0.1432311
129	0xbe8229ed	-0.25422612
130	0xc0c1c75c	-6.055586
131	0x3e3ca4da	0.18422261
132	0xbd85b077	-0.065277986
133	0x3ddf755e	0.10911058
134	0x3e14bd2a	0.14525285
135	0xbd5e8cd8	-0.054333538
136	0x3d283478	0.041065663
137	0x3dd45b50	0.10368979
138	0x3ed83398	0.42226863
139	0xbeb08158	-0.3447368
140	0x3e67ad1c	0.2262463
141	0xbe4fefd9	-0.20306338
142	0xbcc62330	-0.0241867
143	0x3e21ca64	0.15799862
144	0x3e8858da	0.26630288
145	0xc09865a3	-4.762407
146	0x3e8f67ca	0.28008872
147	0x3deaa308	0.11456877
148	0xbd338816	-0.043830954
149	0xbe5474ec	-0.20747727
150	0xc007014d	-2.1094544
151	0x3f479708	0.7796483
152	0xbe73dc25	-0.23814447
153	0x3e02d648	0.12777054
154	0x3e420d72	0.18950441
155	0xbfe84ca6	-1.8148391
156	0x3f57836f	0.84184927
157	0xbe688a1e	-0.22708938
158	0x3d001195	0.031266768
159	0x3f03df5c	0.51512694
160	0x3e4af60c	0.19820422
161	0x3e162b71	0.14665009
162	0xbe1ccb7c	-0.15311998
163	0xbd5be440	-0.053684473
164	0x3e0df96f	0.13864683
165	0x3e68cc0c	0.22734088
166	0x3de2c850	0.11073363
167	0x3e9fddea	0.31223994
168	0xbe17c3da	-0.14820805
169	0xbed0f026	-0.4080822
170	0xc0914aaa	-4.5403643
171	0x3ee68104	0.45020306
172	0x3e9619a4	0.29316437
173	0xbdcb70c0	-0.09933615
174	0x3ecd3377	0.40078327
175	0x3d8eba88	0.06969172
176	0xbe921446	-0.28531092
177	0xbeb15341	-0.3463383
178	0x3e6f3f34	0.23363954
179	0xbdfda4ac	-0.12384924
180	0x3e0aa548	0.13539612
181	0xbe804184	-0.25049984
182	0xbedaf24b	-0.4276298
183	0xbe93cad4	-0.28865683
184	0xbe06d72c	-0.13168019
185	0xbd395460	-0.045246482
186	0x3d894bd8	0.06703919
187	0xbe948bb0	-0.29012823
188	0xbea882ac	-0.32912195
189	0xbec08696	-0.3760268
190	0xc075aa7d	-3.8385308
191	0x3ed6b22f	0.41932818
192	0xbeee65e6	-0.46562117
193	0xbdfbe7e0	-0.12300086
194	0x3e96512d	0.29358807
195	0xc015f64d	-2.343158
196	0x3f3391d7	0.7014441
197	0x3eded66d	0.4352297
198	0xbe8cd2f3	-0.2750469
199	0x3ec5a499	0.3860214
200	0x40cea96b	6.458181
201	0x3f024ea0	0.5090122
202	0x3eb38d0e	0.35068554
203	0x3f0b465d	0.5440424
204	0x3d4ff681	0.050772194
205	0xbebf4643	-0.37358293
206	0xbdd54658	-0.10413808
207	0x3dcf1d58	0.10113019
208	0x3d8a6758	0.067579925
209	0x3e97bc82	0.29636008
210	0x40d93684	6.7879047
211	0x3e986fbd	0.2977275
212	0x3f31c226	0.6943687
213	0x3f345174	0.7043679
214	0xbe4610ee	-0.19342396
215	0xc097eeaf	-4.747886
216	0x3eee55a7	0.46549723
217	0xbef0aabd	-0.47005263
218	0xbee08a82	-0.43855673
219	0x3e4fbede	0.20287654
220	0xc0b8882e	-5.7666235
221	0xbea8fccd	-0.33005372
222	0x3e889a0c	0.26680028
223	0x3e62239c	0.22083896
224	0x3eb67a19	0.35640028
225	0xbecf5eaa	-0.4050191
226	0x3d9c2330	0.07623899
227	0xbd89be2c	-0.067257255
228	0x3ee2a10a	0.44263488
229	0x3ea44b28	0.3208859
230	0x400fed69	2.2488654
231	0xbec7dad6	-0.39034146
232	0x3ea0dc21	0.31417945
233	0x3e9f25c0	0.31083488
234	0x3e9f097c	0.31061924
235	0xbe904acd	-0.28182068
236	0xbe981f5c	-0.29711425
237	0x3e5ee194	0.21765739
238	0x3e1707e8	0.1474911
239	0x3e92f342	0.28701216
240	0x3e7903fc	0.24317926
241	0x3ecece16	0.40391606
242	0xbea9de58	-0.33177447
243	0x3d5b69b0	0.05356759
244	0x3d83b380	0.06430721
245	0x3e96fc74	0.2948948
246	0x3d8905e0	0.06690574
247	0x3dd0dc18	0.101982296
248	0xbe164c58	-0.1467756
249	0xbec50407	-0.38479635
250	0x3ec71469	0.3888276
251	0xbd8274ff	-0.063699715
252	0x3ecdacb8	0.40170836
253	0xbe86494e	-0.26227802
254	0xbebd632b	-0.36989722
255	0x3ec56892	0.38556343

network.0.bias f4 [64]
0	0x3ede57d0	0.4342637
1	0xbe8e1b8a	-0.27755386
2	0x3e8c41f8	0.2739408
3	0x3edd5bcc	0.43234098
4	0xbec3549c	-0.3815049
5	0xbd720be8	-0.059093386
6	0xbccfe6cd	-0.02537861
7	0x3d5cbce0	0.053891063
8	0x3e142eec	0.14471024
9	0xbe8459fa	-0.25849897
10	0x3f1b3a9b	0.606363
11	0xbe18e176	-0.14929757
12	0xbeab3b36	-0.33443612
13	0xbd16e4ab	-0.03683917
14	0xbe3716cb	-0.17879789
15	0xbe04db2e	-0.12974235
16	0x3ed24076	0.41064805
17	0x3c254e30	0.010089442
18	0xbe824c0c	-0.25448644
19	0x3e474c13	0.19462614
20	0xbecfe8d0	-0.4060731
21	0x3d188dab	0.03724448
22	0xbd502758	-0.05081877
23	0xbe82238c	-0.25417745
24	0x3ea93f62	0.3305617
25	0xbe140424	-0.14454705
26	0xbd5d86f1	-0.05408377
27	0xbd4b75f8	-0.04967305
28	0xbe22f684	-0.15914351
29	0x3e4ec72f	0.2019317
30	0x3eb1257a	0.34598905
31	0x3dd80d92	0.10549463
32	0xbe1a4934	-0.15066987
33	0xbedeb71b	-0.43499073
34	0xbeb330fa	-0.34998304
35	0xbedd983c	-0.43280208
36	0xbd693280	-0.056932926
37	0xbe59c651	-0.21267058
38	0x3ea33f60	0.3188429
39	0x3d7dd8ed	0.061974455
40	0x3f6c41c2	0.9228784
41	0xbec2adcc	-0.38023221
42	0x3e8e8afb	0.2784041
43	0x3e12d7b7	0.14340101
44	0xbe7ef27f	-0.24897192
45	0xbeb9260b	-0.36161837
46	0x3ed75e27	0.4206402
47	0xbec33113	-0.38123378
48	0xbe847e0a	-0.2587741
49	0xbddb6658	-0.1071288
50	0xbe15391b	-0.14572565
51	0xbe6513b8	-0.22370803
52	0xbe34b63d	-0.17647643
53	0xbef58afe	-0.47957605
54	0x3b390800	0.0028233528
55	0x3e765337	0.24055181
56	0x3eb4ab51	0.35286954
57	0xbed80acd	-0.4219574
58	0xbed09094	-0.40735304
59	0x3ea992f2	0.33119923
60	0x3ef52fa5	0.47887912
61	0xbe8072ea	-0.25087672
62	0xbef734a2	-0.48282343
63	0x3e9fe292	0.31227547

network.2.weight f4 [64, 64]
0	0x3f02bc52	0.51068604
1	0x3e60a461	0.21937706
2	0x3f108e08	0.5646672
3	0x3f1707af	0.589961
4	0xbc8252e8	-0.015908673
5	0xbdb6fdbe	-0.08935116
6	0x4016acea	2.3543038
7	0x3dd63c22	0.10460688
8	0x3e49b739	0.196988
9	0x3de86ac0	0.11348486
10	0x3f020753	0.50792426
11	0xbd89345e	-0.066994414
12	0xbd333b84	-0.04375793
13	0x3f0e4b96	0.55584085
14	0x3f59c7c6	0.85070455
15	0xbda1e570	-0.0790509
16	0x3f0d59e9	0.55215317
17	0x3df074c0	0.11741018
18	0xbdd29a00	-0.102832794
19	0x3eee75fb	0.46574387
20	0x3c9e6258	0.019334003
21	0x3eedef67	0.46471712
22	0x3dcd92fc	0.10037801
23	0x3dc73e64	0.09728697
24	0x3ed64064	0.41846
25	0x3d9fb010	0.07797253
26	0x3ebc4595	0.36771837
27	0x3de3db4e	0.111258134
28	0xbca70fa8	-0.020393208
29	0x3ee6e733	0.45098266
30	0x3f1a7738	0.60338163
31	0x3ef924e4	0.48660958
32	0x3c2b82e2	0.010468217
33	0xbdae8564	-0.08521536
34	0x3f064f8b	0.5246512
35	0xbb9f5060	-0.0048618764
36	0xbd8e4f0c	-0.06948671
37	0xbd02deb8	-0.031950682
38	0x3ecbf3dc	0.39834487
39	0x3f12c9be	0.57339084
40	0xbded17bb	-0.11576792
41	0x3c8118f0	0.015758961
42	0xbebc3b5d	-0.3676404
43	0x3d96b143	0.07358029
44	0x3e9e7a4a	0.30952674
45	0x3dda3974	0.106554896
46	0x3be370a9	0.0069409204
47	0x3cd08e30	0.025458425
48	0xbd0b8f0c	-0.034071967
49	0xbc949fd0	-0.01814261
50	0xbd594239	-0.05304167
51	0x3d353354	0.044238403
52	0x3fdfc331	1.7481443
53	0x3fb06ae9	1.3782626
54	0x3d2760fc	0.040863976
55	0xbe32a355	-0.17445119
56	0xba83b0df	-0.0010047219
57	0xbd56af13	-0.052413058
58	0x3dca2622	0.098705545
59	0x3f12d358	0.57353735
60	0x3eeee40f	0.4665837
61	0x3de682da	0.11255427
62	0x3fb1f70a	1.3903515
63	0x3edfa60a	0.43681365
64	0xbdac2e86	-0.08407311
65	0x3d91fe98	0.07128638
66	0x3dabe30d	0.08392916
67	0x3da74581	0.08167554
68	0x3dab7cb4	0.083733946
69	0x3d5a4014	0.053283766
70	0xbdb39bea	-0.087699726
71	0xbaadc600	-0.0013257861
72	0xbc803b84	-0.01565338
73	0xbd521b08	-0.05129531
74	0xbc2381c9	-0.009979674
75	0xbde156b6	-0.11002867
76	0xbc239960	-0.009985298
77	0xbd8dabb0	-0.069175124
78	0xbd1222af	-0.035677608
79	0x3df38b1c	0.118917674
80	0xbddcf200	-0.10788345
81	0x3d7acfcd	0.06123333
82	0x3da37fea	0.07983382
83	0xbde9ca79	-0.11415572
84	0x3c2def10	0.010616079
85	0xbd8ed53d	-0.06974266
86	0xbdd48e4e	-0.10378705
87	0x3da88b6a	0.08229716
88	0x3dd486f4	0.10377303
89	0x3db69ffa	0.08917232
90	0x3d102e7c	0.03520058
91	0x3d614768	0.05499974
92	0x3dd7c47a	0.10535522
93	0x3d3c7b29	0.046015892
94	0xbdb43513	-0.087991856
95	0xbdf1d2d8	-0.118077934
96	0xbd9ade8e	-0.0756198
97	0x3dfbc9e8	0.1229437
98	0x3d257d86	0.04040291
99	0x3d6f0300	0.05835247
100	0x3c9a4b30	0.01883468
101	0xbd4deaa8	-0.050272614
102	0x3d4d920e	0.050188117
103	0xbe03acb4	-0.1285885
104	0xbcb6d940	-0.02232039
105	0x3d933816	0.07188432
106	0xbdc4beb4	-0.09606686
107	0xbdee326f	-0.11630713
108	0xbdedd1be	-0.11612271
109	0x3d10a428	0.0353128
110	0xbdb324d8	-0.08747262
111	0xbd639380	-0.05556059
112	0xbd828064	-0.06372145
113	0x3d996e46	0.07491736
114	0x3b83c3e0	0.004021153
115	0xbde27aac	-0.11058554
116	0xbdce8e05	-0.10085682
117	0xbdc05dbb	-0.09392878
118	0x3c927000	0.017875671
119	0x3da5c396	0.08093946
120	0x3dbc57c2	0.09196426
121	0xbdee759c	-0.11643526
122	0x3d76fd7c	0.060300335
123	0x3ceb30f7	0.028709872
124	0x3bfc0ff7	0.007692333
125	0x3d7d8de8	0.06190291
126	0x3dd0d27d	0.101963975
127	0xbdc112c7	-0.094274096
128	0xbd91dcde	-0.07122205
129	0xbdaf62b0	-0.08563745
130	0xbda5ced0	-0.08096087
131	0xbcee41f0	-0.029084176
132	0xbd09a3ec	-0.033603594
133	0x3d986868	0.07441789
134	0xbd936b7c	-0.071982354
135	0xbddc544a	-0.10758264
136	0xbdb93f0c	-0.09045228
137	0xbc3bb130	-0.011455819
138	0xbca63f30	-0.020293802
139	0xbdc06af2	-0.09395398
140	0x3d1aabb0	0.03776139
141	0x3d05755c	0.032582626
142	0x3cd61928	0.026135042
143	0xbde652cc	-0.11246261
144	0xbd862afc	-0.06551167
145	0xbc812568	-0.015764907
146	0x3d98eb02	0.07466699
147	0x3bae4780	0.005318582
148	0xbc2fd080	-0.010730863
149	0xbdb7c082	-0.08972265
150	0xbda38376	-0.079840586
151	0xbde4a554	-0.11164346
152	0x3dbaa57e	0.091135964
153	0x3dca74be	0.09885548
154	0xbda90414	-0.08252731
155	0xbdae564a	-0.08512552
156	0x3d9661a6	0.07342844
157	0x3df8c7de	0.12147497
158	0xbd643b94	-0.05572088
159	0xbdb308de	-0.08741926
160	0xbdb212a2	-0.0869496
161	0x3d056858	0.032570213
162	0x3bdef180	0.0068036914
163	0xbd988100	-0.0744648
164	0x3c2158f0	0.0098478645
165	0xbbdccfc0	-0.006738633
166	0x3cc59ef8	0.024123654
167	0x3d9ba216	0.07599275
168	0x3bf33160	0.0074216574
169	0x3d73d3a0	0.059527993
170	0xbd826f88	-0.06368929
171	0x3d8d2092	0.06890978
172	0x3db4058e	0.08790122
173	0x3d856cda	0.065149024
174	0xbda780cc	-0.08178863
175	0x3c7ff520	0.015622407
176	0x3d58a70c	0.052893683
177	0x3d878a4c	0.06618175
178	0xbd5e4cf0	-0.054272592
179	0xbd10b454	-0.035328224
180	0x3b6976c0	0.003562376
181	0x3d02f7b0	0.031974494
182	0x3ddfa492	0.10920061
183	0xbcda5680	-0.026652575
184	0x3dfef3ba	0.12448831
185	0x3dddabba	0.1082377
186	0x3da754c2	0.08170463
187	0xba4dfb00	-0.00078575313
188	0xbd65e2a0	-0.05612433
189	0xbd37c6b4	-0.044867232
190	0xbdc4d662	-0.09611203
191	0xbdfdc142	-0.123903766
192	0x3df5502d	0.11978183
193	0x3f10d8c8	0.5658078
194	0x3e50a870	0.20376754
195	0x3dd31587	0.103068404
196	0xbd71e698	-0.059057802
197	0x3d90a1ba	0.07062097
198	0x401afa37	2.421522
199	0x3d8150cc	0.06314239
200	0x3f9d508e	1.2290208
201	0xbcb435c8	-0.021998301
202	0x3e645253	0.22297029
203	0xbc8dc708	-0.01730682
204	0x3bfa41a0	0.0076372176
205	0x3eb09a9a	0.34492952
206	0x3f676eea	0.90403616
207	0x3c8fc898	0.017551705
208	0x3d373f0a	0.044737853
209	0x3f428d8f	0.7599725
210	0xbd05cfe0	-0.03266895
211	0x3f27e8b0	0.6558943
212	0xbddc87b8	-0.10768074
213	0x3e52658f	0.20546554
214	0xbdc58b2c	-0.096456856
215	0xbd2d2c28	-0.04227844
216	0x3ea2e527	0.31815454
217	0xbd8b6c4a	-0.06807764
218	0x3f194714	0.5987408
219	0x3d52d988	0.051476985
220	0xbd8720e4	-0.0659807
221	0x3e3afe39	0.18261041
222	0x3e6a2c09	0.2286836
223	0x3e93d088	0.28870034
224	0x3de7d49b	0.11319848
225	0xbcee4b80	-0.029088736
226	0x3eb84bd7	0.3599536
227	0xbda27c36	-0.079338476
228	0xbdeee8aa	-0.11665471
229	0x3dc44cec	0.09584984
230	0x3e6432f4	0.22285062
231	0x3d96f31f	0.073705904
232	0xbf98efd8	-1.1948195
233	0xbd10816c	-0.035279676
234	0xbfbbe64a	-1.4679654
235	0x3f085dde	0.5326823
236	0x3f79167a	0.9729992
237	0xbca83558	-0.020533249
238	0xbf1fd5bf	-0.62435526
239	0x3dea0ee0	0.114286184
240	0xbdec8a44	-0.115498096
241	0x3de764ae	0.112985
242	0xbdb6b083	-0.08920386
243	0xbd8815de	-0.06644796
244	0x3fdd8036	1.7304752
245	0x3f7ef5ac	0.99593616
246	0x3da305a8	0.07960063
247	0x3f1f0be6	0.6212753
248	0xbb251800	-0.0025191307
249	0xbd3e2706	-0.046423934
250	0xbce1aef0	-0.027549237
251	0x3e978266	0.29591674
252	0x3e398205	0.18116005
253	0x3da3933c	0.07987067
254	0x3fb42f62	1.407696
255	0x3e99a21d	0.30006495

network.2.bias f4 [64]
0	0x3e85e26d	0.26149312
1	0x3dce05b5	0.10059682
2	0xbd0bec38	-0.034160823
3	0xbad7b6dc	-0.0016457695
4	0xbcee32e4	-0.029077
5	0xbdeea969	-0.11653406
6	0x3dc808db	0.09767314
7	0xbd88fc6a	-0.06688769
8	0x3b496521	0.0030730444
9	0xbd4abd3e	-0.04949688
10	0x3e94a60e	0.2903294
11	0xbd773617	-0.06035432
12	0x3e9dea3b	0.30842766
13	0x3c0fd8e9	0.008779743
14	0xbc3bdfc6	-0.011466926
15	0x3d9daeec	0.07699379
16	0xbdcc4d77	-0.09975713
17	0xbbac185d	-0.0052519278
18	0xbddc921b	-0.10770055
19	0x3c817fd0	0.015808016
20	0x3b5b1d21	0.003343411
21	0x3cb88c3b	0.022527805
22	0xbd7b1478	-0.061298817
23	0x3ce4f5d7	0.027949257
24	0x3d924ddb	0.07143756
25	0xbda548e6	-0.08070545
26	0x3dd676fa	0.10471912
27	0xbd37988c	-0.044823214
28	0x3eaa92dd	0.33315173
29	0xbcad1e67	-0.021132661
30	0xbddb7682	-0.10715963
31	0x3d6cd8e1	0.05782402
32	0x3d8d5962	0.06901814
33	0xb85b6639	-5.230887e-05
34	0x3ea2ce67	0.31798097
35	0xbdde72c2	-0.10861732
36	0xbe8ace6c	-0.27110612
37	0xbd49ab78	-0.04923579
38	0xbdb5e2bb	-0.08881136
39	0xbeea755b	-0.4579266
40	0xbdbc4766	-0.09193306
41	0xbe4e0e34	-0.20122606
42	0xbde1657e	-0.11005686
43	0x3de6fd9b	0.1127884
44	0xbd3904cd	-0.045170594
45	0x3d19836c	0.03747885
46	0x3e98e37b	0.29861054
47	0xbe0c115e	-0.136785
48	0xbc3a3c70	-0.0113669485
49	0xbd166e94	-0.03672655
50	0x3ebd6782	0.36993033
51	0xbd837860	-0.06419444
52	0xbe690d67	-0.22759019
53	0xbe089ace	-0.13340303
54	0xbdb5bfc6	-0.088744685
55	0x3eb57cea	0.35446864
56	0xbad24343	-0.0016041774
57	0xbc4bc982	-0.01243818
58	0x3be2fde0	0.006927237
59	0x3f295b98	0.66155386
60	0xbdb3535c	-0.08756134
61	0xbe0bf371	-0.13667084
62	0x3d8a5610	0.06754696
63	0x3e8927a8	0.26788068

network.4.weight f4 [4, 64]
0	0x3eea902c	0.4581312
1	0xbd93749c	-0.07199976
2	0xbda93852	-0.08262695
3	0x3f16c1c7	0.5888943
4	0x3cdab5e1	0.026698055
5	0x3ee697c3	0.4503766
6	0x3ea3b943	0.3197728
7	0xbdc7289a	-0.09724541
8	0xbcc93730	-0.024562448
9	0x3d434f11	0.047682825
10	0x3ec3d313	0.38246974
11	0xbd1a6dbb	-0.037702303
12	0x3e7e6c78	0.24846065
13	0xbdc9cc71	-0.09853447
14	0xbd97c0cb	-0.07409819
15	0x3de8f27e	0.11374377
16	0x3ee8976b	0.45428023
17	0xbd863f4c	-0.06555042
18	0x3f1fd45f	0.6243343
19	0x3dd3f7cc	0.10349998
20	0xbd89708e	-0.06710921
21	0x3dceeff4	0.10104361
22	0x3d79d90c	0.060998008
23	0x3f997e64	1.1991696
24	0x3ea082d7	0.31349823
25	0xbdc880c4	-0.09790185
26	0xbc9ea34e	-0.01936498
27	0x3bdc305a	0.006719631
28	0xbfb09478	-1.3795309
29	0xbd6b07a0	-0.05738032
30	0x3f88f3bf	1.0699385
31	0xbdd5e0b6	-0.10443251
32	0xbd8ab249	-0.067722864
33	0xbe12f662	-0.143518
34	0x3eb73fbe	0.3579082
35	0x3d9282e6	0.07153873
36	0x3fdede69	1.7411624
37	0x3bc8cca0	0.006127909
38	0x3f04aa87	0.51822704
39	0xbf446b97	-0.7672667
40	0x3d053d63	0.032529246
41	0x3f87f9b9	1.0623084
42	0x3f27b70b	0.65513676
43	0xbdbdf711	-0.0927564
44	0xbdac88ff	-0.084245674
45	0xbda989d0	-0.08278239
46	0xbf7be68e	-0.98398674
47	0xbde9de80	-0.11419392
48	0xbdb0b7ec	-0.0862883
49	0xbda4197c	-0.08012673
50	0x3ebf2df2	0.3733974
51	0xbd8af9c8	-0.06785923
52	0x3eeddf0f	0.46459243
53	0x3f81bab3	1.0135101
54	0xbd91fea0	-0.07128644
55	0x3ec4e122	0.38453013
56	0x3c189636	0.009313157
57	0x3fa83bba	1.3143227
58	0x3c0f8370	0.0087593645
59	0x3fdfa8e5	1.7473418
60	0xbcc1b7c8	-0.023647204
61	0x3cd84f71	0.026405068
62	0x3de3045c	0.11084816
63	0x3e30637d	0.17225452
64	0x3ed7b0bf	0.42127034
65	0xbde8eb96	-0.113730595
66	0xbc279fe0	-0.010230988
67	0x3f1ab7e6	0.60436857
68	0x3dc970d4	0.098359734
69	0x3ef59a46	0.47969264
70	0x3e8cf61b	0.27531514
71	0x3d230a90	0.039804995
72	0xbb62cf0a	-0.0034608268
73	0xbc847e6b	-0.016173562
74	0x3f6c8c58	0.9240165
75	0x3c65ea10	0.014032856
76	0x3e788e2e	0.24272987
77	0xbdfd4e2f	-0.12368428
78	0xbdaf37dc	-0.08555576
79	0x3d852608	0.065013945
80	0x3ee89dd7	0.45432922
81	0xbd8f7b2a	-0.070059136
82	0x3efcfadd	0.49410143
83	0xbd821f36	-0.06353609
84	0x3dadfd36	0.08495562
85	0xbc1ed9dd	-0.009695497
86	0x3de4ab12	0.111654416
87	0x3f15f86c	0.58582187
88	0x3dfa257f	0.12214183
89	0xbd392b7c	-0.045207486
90	0x3d27f56f	0.041005548
91	0xbd2d4800	-0.042304993
92	0xc000764a	-2.0072198
93	0xbd5f7926	-0.054558896
94	0x3f36f67a	0.71469843
95	0xbdf53ad2	-0.1197411
96	0xbc701a80	-0.014654756
97	0x3d1f8d75	0.038953263
98	0x3e809eab	0.25121054
99	0x3ddf12f4	0.10892287
100	0x3f34dff3	0.7065422
101	0x3d46a5b8	0.048497885
102	0x3ead307f	0.33826062
103	0x3d207e92	0.039183207
104	0xbd6626e0	-0.056189418
105	0x3f17bff2	0.5927726
106	0x3ebcd6bd	0.36882582
107	0xbd8a1a5d	-0.0674331
108	0xbc00864e	-0.007844521
109	0xbd9cb50c	-0.076517195
110	0xbf2de0e6	-0.6792129
111	0x3dc91686	0.09818749
112	0x3d0826c0	0.03324008
113	0xbd700b00	-0.05860424
114	0x3ef69973	0.48163947
115	0x3cf9dac8	0.03049983
116	0x3ed2a37a	0.41140348
117	0x3f2433bb	0.64141434
118	0xbd501900	-0.05080509
119	0x3eac1724	0.33611405
120	0x3d841a4f	0.064503305
121	0x3f65f425	0.8982566
122	0x3d94867a	0.07252212
123	0x3f935164	1.1509213
124	0xbc0b87d0	-0.008516267
125	0x3df96375	0.12177173
126	0x3d8975a6	0.06711893
127	0x3eaf77d6	0.34271115
128	0x3ed12587	0.40848944
129	0x3ddb3aac	0.1070455
130	0x3ddd1768	0.1079548
131	0x3f0fc063	0.56152934
132	0x3c708e24	0.0146823265
133	0x3f2518b3	0.64490813
134	0x3eb89865	0.36053768
135	0x3d8a2ae4	0.06746462
136	0xbd719ba2	-0.058986314
137	0x3d7b7ae4	0.061396495
138	0x3f183bb0	0.59466076
139	0x3d503b70	0.050837934
140	0x3edd1301	0.4317856
141	0x3d0ec926	0.0348598
142	0x3d62c8e2	0.055367358
143	0xbd886f70	-0.0666188
144	0x3f13bbcb	0.57708424
145	0xbdf40628	-0.11915237
146	0x3e9506ae	0.2910666
147	0x3c706f10	0.014674917
148	0xbdf635f2	-0.12022008
149	0x3deb76f0	0.11497295
150	0xbd0e0f74	-0.034682706
151	0x3ddb7995	0.10716549
152	0x3ebb557f	0.36588666
153	0xbe055f18	-0.13024557
154	0xbd0d1c4f	-0.034450825
155	0xbda33784	-0.07969573
156	0xbfda120f	-1.7036761
157	0x3d8b5593	0.06803431
158	0x3f051b73	0.5199501
159	0x3dbb1855	0.091355
160	0xbd36f5f8	-0.044668168
161	0x3d103823	0.035209786
162	0x3eaceab3	0.3377281
163	0xbd513220	-0.051073194
164	0x3ee0f1d5	0.43934503
165	0xbd3410d0	-0.043961346
166	0x3ef18f87	0.47179815
167	0x3e08bfa3	0.13354354
168	0xbc288fb0	-0.010288164
169	0x3f01a208	0.50637865
170	0x3e8e1fd8	0.2775867
171	0xbb9efc7d	-0.0048518763
172	0x3dcfc565	0.10145072
173	0xbdb3e884	-0.08784583
174	0xbf6157fa	-0.88024867
175	0xbd8c04d2	-0.06836857
176	0x3d5c30c4	0.053757444
177	0xbcc83ba0	-0.024442494
178	0x3efdcd21	0.49570563
179	0xbd9a8e3e	-0.07546662
180	0x3ed3b053	0.41345462
181	0x3f03f0c4	0.51539254
182	0x3dc12d1a	0.094324306
183	0x3eb7ef5b	0.359248
184	0x3ddf8eda	0.10915919
185	0x3ef18a05	0.47175613
186	0xbd142ec0	-0.036177397
187	0x3f89f30f	1.0777301
188	0xbd934ee8	-0.071927845
189	0xbd72c5e1	-0.059270743
190	0x3de429f4	0.111408144
191	0x3f0030f1	0.5007468
192	0x3ee78f02	0.45226294
193	0x3e041c5f	0.12901448
194	0x3c76d340	0.015065014
195	0x3f8bcf6e	1.0922678
196	0xbcbc5c06	-0.022993099
197	0x3f70c4ef	0.94050497
198	0x3e49447b	0.1965503
199	0xbdd4465e	-0.10364984
200	0x3d23c538	0.039983004
201	0xbd39442c	-0.04523103
202	0x3ef4beee	0.47801918
203	0xbd105f2f	-0.035247024
204	0x3eaacf5b	0.33361325
205	0xbd1122fd	-0.035433758
206	0xbdae0654	-0.08497301
207	0xbd7bc7d8	-0.061469883
208	0x3f560473	0.8360054
209	0x3d1592f7	0.03651711
210	0x3f020e43	0.5080301
211	0xbc34fbd0	-0.011046365
212	0x3dd28b4c	0.10280475
213	0x3d990215	0.074711
214	0x3c3b6590	0.011437789
215	0x3f2d50f7	0.6770167
216	0x3e95cf43	0.2925969
217	0xbc9fcee4	-0.019507833
218	0xbd404aa8	-0.046946198
219	0x3d7d5c55	0.061855633
220	0xbfa5b7ad	-1.2946678
221	0xbd44235d	-0.047885288
222	0x3f2b7459	0.6697441
223	0xbc89e32c	-0.016831957
224	0x3d1be988	0.03806451
225	0xbd9c98d4	-0.07646337
226	0x3e38b32c	0.18037099
227	0xbdbed40e	-0.0931779
228	0x3f79d469	0.9758974
229	0xbd4127b0	-0.04715699
230	0x3ee1e0d4	0.44116843
231	0x3eb0821a	0.3447426
232	0xbdb89362	-0.09012486
233	0x3f2884a1	0.65827376
234	0x3f267737	0.6502566
235	0x3db121bd	0.08649013
236	0x3d71dca7	0.05904832
237	0xbd68ac98	-0.056805223
238	0xbde42a9f	-0.11140942
239	0xbd7d46ec	-0.061835214
240	0xbd65bf44	-0.05609061
241	0x3dd0112e	0.10159527
242	0x3eb700c3	0.3574277
243	0x3d824a20	0.063617945
244	0x3eeef740	0.46673012
245	0x3f617169	0.88063675
246	0x3db48b7c	0.08815667
247	0x3eb5035f	0.35354134
248	0x3c311369	0.01080785
249	0x3f2522bd	0.6450613
250	0x3d3a0bc4	0.045421377
251	0x3fc4bc63	1.5369991
252	0x3d9e64e2	0.077340856
253	0x3c1672ab	0.009182612
254	0x3d16f6b8	0.036856383
255	0x3ea52da4	0.32261384

network.4.bias f4 [4]
0	0x3ea22b19	0.31673506
1	0x3eab1499	0.33414152
2	0x3e646deb	0.22307555
3	0x3e524b08	0.20536435
